log/fc1/best_model.pt (torch_old, 67057 bytes, 10 tensors)

conv1.weight f4 [16, 1, 5, 5]
000000 89 d5 01 bd 85 24 aa ba 80 8d a5 3d c4 fe 23 3e
       -0.031697784 -0.0012980854 0.080836296 0.16015154
000010 4d d7 2b bd 44 c4 12 3e 1f 1b ca bc 86 b8 6b bd
       -0.041953374 0.14332682 -0.024671135 -0.057549022
000020 10 87 19 be 90 d6 19 3d eb 31 1f be 3a 11 10 3e
       -0.14992929 0.03755814 -0.15546386 0.14069071
000030 4b bc 15 3e eb 55 03 3c 37 fb 00 bd 3d 06 d0 3c
       0.1462261 0.00801609 -0.031489577 0.0253936
000040 a5 6c 17 bd ac b3 a1 bc a7 4e 66 bd ea 31 f5 3c
       -0.036968846 -0.019738995 -0.056227352 0.029931027
000050 e6 7b f4 3d 7c 3c 09 3d 1f 02 9c bd fc 4f a1 bd
       0.11937694 0.033504948 -0.07617592 -0.07876584
000060 df a0 2c 3d c7 74 21 be a3 f0 a2 bd be 7e cc 3c
       0.042145606 -0.15767203 -0.07956054 0.02496278
000070 98 48 0c 3e 80 d2 3c bd a5 b9 3f 3e 92 ba 04 be
       0.13699567 -0.046099186 0.18723162 -0.12961796
000080 27 15 2c 3d cc 74 e4 bd b0 a0 d1 3d 08 25 07 bd
       0.04201236 -0.1115509 0.10235727 -0.0329943
000090 a5 f3 d2 bd 89 c5 13 bc c1 55 13 bd 11 94 0e bd
       -0.10300378 -0.009019264 -0.035970453 -0.034809176
0000a0 6d f0 0b be 1b ca 7c bd ca f5 ac bd 45 a3 17 3e
       -0.13665934 -0.06171618 -0.08445318 0.14808376
0000b0 c5 8e 9b bd 16 0c 64 3d 7d b3 07 3e 5a 4b 8a 3d
       -0.075955905 0.05567559 0.13252063 0.067526534
0000c0 2a 6a eb 3d 7f d9 01 3e 25 14 84 bd 2f eb 14 be
       0.114948586 0.12680624 -0.06449155 -0.1454284
0000d0 59 a5 7b 3d 40 e3 96 3d 72 10 f8 bd ac 47 28 3e
       0.061436985 0.07367563 -0.12112512 0.1643359
0000e0 6f 5a 23 3e 33 0c 59 3d 9c 68 66 bc 5b 68 b4 bd
       0.15952466 0.05299015 -0.014063027 -0.08808967
0000f0 54 5b 05 3e 4c 1d e0 bd 33 36 fe 3d ff 8d b7 bc
       0.1302312 -0.10943088 0.124126814 -0.022406576
000100 54 de 01 3c 09 1f 8d 3b 65 ff d5 bd 6a 95 b5 bb
       0.007926542 0.004306678 -0.10449103 -0.005541493
000110 a8 c2 40 3e d3 0c a5 3d e7 20 ac bd 79 e4 1a be
       0.18824255 0.08059087 -0.08404713 -0.15126218
000120 74 10 17 3e 5d f8 cd bd 50 32 5f bd 1c 8c 9e 3c
       0.1475237 -0.10057137 -0.05449134 0.019353919
000130 be 2d a2 3d da 6c ac 3d 92 7a af bc e4 99 50 3c
       0.07918881 0.08419199 -0.02142075 0.012732003
000140 ad c4 9f 3d c1 a6 30 3d 0a ed 88 3b 3c e0 4d bd
       0.07801185 0.04312778 0.004178648 -0.050262675
000150 1e 73 62 bd 2c 52 55 bd 22 41 49 bd 60 9b e7 3c
       -0.055285566 -0.05208032 -0.04913438 0.02827233
000160 50 79 a7 3b d5 c3 ab 3c ed 78 e8 3d 47 fa e1 3b
       0.005110897 0.020967403 0.1135119 0.0068962905
000170 53 05 8f bd da 31 04 3d c8 41 92 3d 52 1e be bd
       -0.069834374 0.032274105 0.07141453 -0.09283127
000180 f6 4a 96 3d bd 74 a5 bd ae 52 7c 3d f1 89 3c bd
       0.073385164 -0.08078907 0.061602287 -0.04602999
000190 0c 9e 0f be 1f de 17 be b2 ca 38 3e d4 68 07 be
       -0.14025134 -0.14830826 0.18046072 -0.13223583
0001a0 bb c2 83 3c fd 4f 8f bc df 08 31 3e a0 b3 28 3e
       0.016084066 -0.017494196 0.1728854 0.16474771
0001b0 92 d5 34 3b ed 9e ed bd 37 1b 10 bd 54 dd ef bb
       0.0027593118 -0.11602578 -0.035182204 -0.0073200855
0001c0 1a ba 45 3b a0 2d 2a 3e 53 0f da bd 02 27 99 bd
       0.003017074 0.16618967 -0.10647454 -0.07478143
0001d0 3d 25 96 3d 7b b3 ac bc 8f 98 cb 3d 71 90 b5 3d
       0.073313214 -0.021081677 0.099412076 0.08865441
0001e0 ba 94 0e be 15 a0 38 3e 34 e5 59 3d 96 6c cf bd
       -0.13923922 0.18029816 0.0531971 -0.10128133
0001f0 dc ca 5c 3b 2e 4f 07 3d 98 54 02 bb db 63 01 3d
       0.003369025 0.033034496 -0.0019886848 0.03158937
000200 f2 a0 be 3c 66 25 42 ba be c1 26 3d 46 c6 dd 3b
       0.023270104 -0.00074060855 0.04071211 0.006768021
000210 72 24 f9 bc 04 f1 bf bc f5 67 73 ba cd 07 6f bb
       -0.030412886 -0.023430355 -0.0009285205 -0.0036473155
000220 6b 58 56 39 c3 c3 20 bc 00 ca 11 ba 4b 22 00 bd
       0.00020441569 -0.009812298 -0.00055614114 -0.031282704
000230 a4 7a 29 bd 1a fb dc 3c 53 74 d4 bb c0 b5 6a 3b
       -0.041376725 0.026975203 -0.0064835935 0.0035813898
000240 9f 77 7b 3c fe fd 3f bc 4e 69 06 3c f6 04 fa 3b
       0.015348344 -0.011718271 0.0082038175 0.007629986
000250 96 da 11 3d 3c 06 9b 3b 10 f1 15 be ed a4 06 be
       0.03560885 0.004730968 -0.1464274 -0.13148852
000260 37 aa 52 bd 3d 23 88 3d e4 0b 28 3e f4 91 d1 bd
       -0.05143186 0.06647346 0.16410786 -0.102329165
000270 15 fc 0c 3e 00 41 97 bd fa 16 1d 3e 25 62 27 3e
       0.13768037 -0.07385445 0.15340796 0.16346033
000280 20 bf ca bc be 34 3e 3e d4 28 38 3d 8f 57 e0 3d
       -0.024749339 0.18574807 0.04496081 0.109542005
000290 94 e6 0d 3e 9e 77 15 be bd a1 eb bd 5d 9d 73 3d
       0.1385749 -0.14596412 -0.115054585 0.059476245
0002a0 2e 3a d4 bd fe 31 b8 bd d7 6f a7 bd b9 9e 09 3d
       -0.103626594 -0.0899391 -0.08175629 0.033598635
0002b0 17 cd 0f be 0d 5b 97 bd e6 f5 31 3e 44 e3 b6 3d
       -0.1404308 -0.073904134 0.17378959 0.08930066
0002c0 15 71 4b bd 1b 4d 5b 3d c7 40 9e bd 7f a0 87 ba
       -0.04966839 0.05354033 -0.07727199 -0.0010347514
0002d0 e8 ac fb bd 2d a5 02 bc 33 8e a9 bd 4a bb e3 bd
       -0.122888386 -0.007973951 -0.082790755 -0.11119707
0002e0 1f fe ec 3d 0f f6 04 3d e2 de db 3d b2 ef 11 3e
       0.11571907 0.032461222 0.10735871 0.14251593
0002f0 53 64 1d 3e 4d 68 00 bc 14 6f 00 be 41 75 ba bd
       0.15370302 -0.007837367 -0.12542373 -0.09104396
000300 fa 3a f9 3c 44 11 46 bd a9 87 dc 3d 9f 26 5c bd
       0.03042363 -0.04835631 0.107680626 -0.05374777
000310 54 b5 11 3e 1d fb be bc 5e 7e db bd 2a 40 9e bc
       0.14229327 -0.0233131 -0.10717462 -0.019317705
000320 3a 8c 3f 3d 77 59 0f bc 63 db 27 3d 13 00 5c 3c
       0.04676459 -0.008749357 0.040980708 0.013427752
000330 24 f0 e9 3c 68 05 fb 3c 16 05 bc 3b 55 a5 3e 3d
       0.02855689 0.030642226 0.005737911 0.04654439
000340 28 b1 43 bb ea da 05 bc 4b 2b bb bc 4f b2 f3 3b
       -0.0029860232 -0.008169869 -0.022847792 0.0074370275
000350 4a 03 fa bc 7b 56 25 3d 4e b1 a1 bc 49 75 8d 3d
       -0.030519146 0.040365677 -0.019737866 0.06907136
000360 71 29 5f bc 6e e2 bc 3c e0 54 12 bd ec 31 79 bb
       -0.01362072 0.023057189 -0.035725474 -0.003802414
000370 a3 67 69 bd b8 41 2d 3d 82 66 7e 3d 15 ed 5f bc
       -0.0569836 0.042299002 0.062109478 -0.013667365
000380 a9 50 13 bc 28 d3 00 bd 0a db 02 be 32 f3 11 bd
       -0.008991399 -0.031451374 -0.1277887 -0.03563232
000390 8e 84 84 3d 98 80 34 3d 46 8e 25 3e d0 e2 19 be
       0.06470595 0.04406795 0.16167554 -0.15027928
0003a0 7b 5d 2a 3e 09 da 26 be 64 68 be 3c 0f 2b ac bd
       0.16637222 -0.16294111 0.023243137 -0.0840665
0003b0 b3 8d c6 3d c1 ed 11 be 06 83 8e bd 3f 9b 12 be
       0.09694996 -0.14250852 -0.069585845 -0.14317034
0003c0 52 7f 0a be 05 e5 64 3d cc 15 ef 3c 10 21 5d 3d
       -0.13525131 0.055882473 0.029185198 0.05398661
0003d0 cd f9 b6 3c 8d 2a e7 3d d7 6a 82 3d be c8 3c bd
       0.022335911 0.11287413 0.06368034 -0.04608988
0003e0 59 a7 41 3e 0b f3 a8 3d b6 3e 01 bd 57 92 80 3c
       0.18911494 0.08249482 -0.031553946 0.01569478
0003f0 18 95 8d bc 59 a1 0b bd ff 36 82 3d 5f 14 52 3c
       -0.017283008 -0.03408942 0.06358146 0.01282224

conv1.bias f4 [16]
000000 aa 2c 2d bc 4d 5b 7e 3c 8b 28 34 3d 5c 0e 0e bd
       -0.010569731 0.0155246975 0.043983977 -0.034681663
000010 3b cd 3e 3d d7 50 1e be 58 ec 17 3e 0d e0 c0 bd
       0.04658244 -0.15460525 0.14836252 -0.09417734
000020 9f 3b 02 be d8 0f 0f bd cd b7 0f bd 7a 77 14 be
       -0.12718056 -0.03492722 -0.035087395 -0.14498702
000030 c7 a2 b6 bd 48 cf 1d 3e fc c1 a4 bc 3e 25 50 3c
       -0.08917766 0.15411103 -0.02011203 0.012704192

conv2.weight f4 [32, 16, 5, 5]
000000 08 72 2d 3b 21 17 14 bc e4 fc 5d 3b 75 e6 69 3c
       0.0026465673 -0.0090387175 0.0033872658 0.014276137
000010 74 aa 63 bc 6c 9f 34 bc 2d 18 81 3b e3 40 b4 3a
       -0.01389562 -0.011024337 0.0039396496 0.0013752248
000020 5a 36 97 bb 7c 6c 58 bb 57 7e d7 bb f4 09 00 3c
       -0.0046146335 -0.0033023646 -0.00657634 0.007814873
000030 da 0e 48 bc 22 f2 83 3c 00 b9 86 bc ef 4b b3 3b
       -0.012210572 0.016106669 -0.016445637 0.0054716985
000040 c4 42 6b bc bc 5a 40 3c ee e5 7b bc c4 24 1c 3c
       -0.01435918 0.011740383 -0.015374644 0.00953025
000050 67 f4 3d bc 4c da f1 ba 6e 1c 7c bc 19 cf 76 bc
       -0.011593915 -0.0018451898 -0.015387638 -0.015064024
000060 84 6a 2d ba 1e c2 8f 3c e6 d7 7c ba 8e fb fd bc
       -0.00066152983 0.017548617 -0.00096452085 -0.03100374
000070 7f bf 08 3b 50 d7 b4 3b 66 88 1f bc 10 f4 ad bc
       0.0020866094 0.0055188313 -0.00973711 -0.021234542
000080 ff ef 78 bb 8a 82 e5 bc b1 00 89 3c a1 a5 8d bb
       -0.0037984846 -0.028016347 0.016723963 -0.004322723
000090 44 02 66 3c 1c 2e cf bb bc 8e 1b 3c f5 a3 e7 3a
       0.014038626 -0.0063226353 0.00949448 0.0017672764
0000a0 10 d5 8c 3b 00 fc c2 bc f8 a5 cb bc 64 7f f9 bc
       0.00429786 -0.023801804 -0.024859414 -0.030456252
0000b0 68 2f 64 bc b5 22 2c bd 7a 3b f9 bc 1b 08 37 bb
       -0.013927318 -0.042025287 -0.030423868 -0.0027928415
0000c0 0f 5b 1a bd 7d bc 3a bc 48 cd 02 bd 7f d1 a0 3b
       -0.037684496 -0.011397478 -0.031934053 0.0049077864
0000d0 8d fb d8 bc 44 4a 20 bc 71 57 82 3b f1 1d 21 3c
       -0.026487136 -0.009783331 0.003977709 0.009833799
0000e0 88 24 d1 bc ae e3 80 3c 66 50 a0 3c d3 ab a9 3c
       -0.025530115 0.015733566 0.019569587 0.020711815
0000f0 b8 8b 83 bc d3 6f be bc 85 a5 08 bc c6 eb 01 bc
       -0.016057834 -0.023246681 -0.008340244 -0.007929748
000100 1c f4 a6 3c 0c 55 af bc de ce ec bc 4c 9d d2 3c
       0.020380072 -0.021402858 -0.028907236 0.02570977
000110 07 6e f7 ba 7b 31 dd bc 3a 61 ec bc 16 9c 80 bc
       -0.0018877395 -0.027001133 -0.028854955 -0.015699428
000120 8f 9d 93 3b 8b 9a c2 bc 83 3e 4a 3b 53 d2 bc 3a
       0.0045048664 -0.023755332 0.0030860014 0.0014405943
000130 8e 36 3a bb 09 b4 6d bb 25 9d 64 3b ee a3 91 ba
       -0.0028413865 -0.003627064 0.0034883705 -0.0011111477
000140 d5 8e 9b bc c8 45 00 bb 11 f8 e8 bb f4 7d 8f bb
       -0.018989006 -0.0019572843 -0.00710965 -0.0043790285
000150 a9 bc 23 bb ec 02 8e 3b d0 c8 3a 3c d3 26 6d bc
       -0.0024984276 0.0043338444 0.0114004165 -0.014474588
000160 68 f4 bf bc e5 17 50 3c b7 92 15 3c 31 fc 48 3b
       -0.023431972 0.012701009 0.009129218 0.0030667896
000170 9b 1c 69 bb 1e 99 9a bb eb b8 70 39 e2 0c 0d 3c
       -0.0035570029 -0.00471796 0.00022957071 0.0086090285
000180 0d e3 0d 38 f4 cb e6 3b a7 f4 62 39 5a 11 a0 b7
       3.3828477e-05 0.007043356 0.0002164418 -1.9081566e-05
000190 d9 ac c3 3b 94 11 b0 3c eb 8e 08 3c c6 58 6a 3c
       0.005971533 0.021492757 0.008334856 0.014303392
0001a0 e7 f0 81 bc 61 86 7f bb 76 7c 6f 3c 64 22 ad 3c
       -0.015861942 -0.0038990008 0.014617076 0.021134563
0001b0 16 43 89 bc 3f 34 8d bc 0f 0a e4 bc e1 74 cc bc
       -0.016755622 -0.017236827 -0.027836828 -0.024958076
0001c0 04 3d 77 bb 61 88 98 3c 6e 47 6a bc 85 2f 3e bc
       -0.0037725577 0.018619718 -0.014299257 -0.011608009
0001d0 54 59 72 3c 55 db 8c b9 8f bc 1c bc 97 20 2e 3c
       0.014791805 -0.00026866296 -0.00956644 0.010627887
0001e0 27 6b 22 bc 89 ac 43 3c b4 26 04 bc 94 98 3a bc
       -0.009913242 0.011942991 -0.008065868 -0.0113889165
0001f0 ca f9 b8 bb 81 75 ee b6 1e d3 96 37 29 8d 29 37
       -0.0056450116 -7.106632e-06 1.7979703e-05 1.0106051e-05
000200 00 75 ae 38 d6 37 78 38 dd 20 b9 b6 2f 31 40 35
       8.3187595e-05 5.917981e-05 -5.5172554e-06 7.1597145e-07
000210 b5 88 01 b8 4e af e6 37 ae a5 80 b8 a8 83 8d b5
       -3.0883315e-05 2.749977e-05 -6.134376e-05 -1.0543636e-06
000220 6d cd 52 38 f2 9f 57 35 cc 40 12 38 a2 0d 1e b8
       5.025922e-05 8.032649e-07 3.486946e-05 -3.7682832e-05
000230 41 d9 6a b7 95 e9 cd b5 de bb 4c 38 ce d7 ac b6
       -1.399807e-05 -1.5341672e-06 4.8812355e-05 -5.1511224e-06
000240 c9 86 83 b7 c2 24 2d b7 18 77 35 38 c0 87 6e 36
       -1.5679181e-05 -1.0320162e-05 4.3264678e-05 3.554378e-06
000250 df ab d9 b6 d7 7d f4 b5 ac 12 c9 3c 6f 4e 09 3c
       -6.4871124e-06 -1.8216041e-06 0.024545036 0.008380516
000260 1c 8c 98 3c 5a 5b 99 3c 8a c2 1c bc 7e 27 02 bd
       0.018621497 0.018720318 -0.009567866 -0.031775944
000270 53 dc 25 bd 50 16 bb 3b 80 e7 bf 3c a0 46 dd 3c
       -0.04049332 0.005709447 0.023425817 0.027011216
000280 d5 f0 a4 bc 4f 3f 8f 3c 55 7c e1 3b 2b 48 14 3c
       -0.020134369 0.017486243 0.0068812766 0.009050409
000290 bc 92 90 bc 65 df fd bc 7b 46 b6 3c 16 1f b5 3b
       -0.017648093 -0.030990312 0.022250405 0.0055273874
0002a0 24 72 77 3c 91 f0 a6 bc 5f 52 81 3c 91 e9 fb bc
       0.015102897 -0.020378383 0.015786348 -0.030751022
0002b0 e5 21 3b bd e4 6d 8d 3c 96 e9 01 3c 1e 72 1e bb
       -0.04568662 0.017264314 0.007929226 -0.0024176906
0002c0 ff 2e af ba 81 ef 5d ba 1a 25 3d bb cc eb 87 ba
       -0.0013365446 -0.000846617 -0.0028861226 -0.0010369956
0002d0 74 0a 79 b8 c7 18 6b 3a 99 0c 32 3b 49 a8 d0 3a
       -5.937596e-05 0.00089682307 0.0027168153 0.0015919294
0002e0 85 c6 34 bb 6b 6d 11 ba e4 b5 8f b9 a5 b5 a7 ba
       -0.0027584147 -0.00055476156 -0.00027410605 -0.0012795223
0002f0 e7 a3 a3 3b d1 34 ce 3b 6a 0b 77 ba 6f ac 33 3b
       0.004993904 0.0062929173 -0.0009424003 0.002741601
000300 4c af 97 ba a2 2a 33 bc 96 35 f5 ba 4a 1a 88 37
       -0.0011572628 -0.010935457 -0.0018707986 1.6224705e-05
000310 f3 e7 c8 b8 ad ed b3 b8 a1 dc a1 bb ba f2 3c b9
       -9.579947e-05 -8.579656e-05 -0.004939631 -0.000180195
000320 1f 47 0d b9 e3 7e 0e b9 72 92 51 b8 7e 68 08 39
       -0.00013473303 -0.00013589444 -4.996587e-05 0.00013008897
000330 86 af 4e ba a7 24 b2 b7 6e 89 12 b8 c9 de 87 3a
       -0.00078844314 -2.1236321e-05 -3.4937104e-05 0.0010366078
000340 9e a6 86 b8 89 61 2d b9 7f d6 d1 38 50 81 02 ba
       -6.420653e-05 -0.000165349 0.000100058496 -0.00049783755
000350 d8 f5 6c b9 e8 d6 f5 b8 90 4b 1b ba 8a 06 a5 b7
       -0.00022598298 -0.0001172254 -0.00059240405 -1.9672578e-05
000360 90 bc 1a 3a 88 79 0a b9 a7 e0 6b b8 10 76 06 b9
       0.0005902732 -0.0001320598 -5.623759e-05 -0.00012823218
000370 8f 7d 89 37 64 de db b5 b5 1a be 36 fc 9e 28 38
       1.639014e-05 -1.6381496e-06 5.6655504e-06 4.0202387e-05
000380 d9 75 bd b8 a0 53 b8 ba cc ac 3d 3c a8 56 c7 3b
       -9.034173e-05 -0.0014063008 0.0115768425 0.0060833283
000390 5d a8 df bb 7d 6e 73 3b 1e 36 97 3a 74 b8 2d bb
       -0.0068254904 0.0037144714 0.0011536514 -0.0026507648
0003a0 20 76 54 bc 9c 03 49 3c 3f 13 33 bc b9 6e 47 bb
       -0.012967616 0.012268927 -0.010929882 -0.0030430986
0003b0 e2 89 19 bc 72 55 9b bb c3 57 05 bc 5a 98 76 bc
       -0.009371253 -0.0047404105 -0.0081386 -0.015050972
0003c0 32 12 6f bb 64 de 50 bc 7b 9c a9 bb 6b de 6f bb
       -0.003647935 -0.012748335 -0.0051761246 -0.0036601077
0003d0 8e d7 96 bb f5 6e fd 3b 6a a0 0d 3c f2 95 9f 3c
       -0.004603333 0.0077341744 0.008644203 0.01948068
0003e0 9c fc 94 3c 4a f7 a0 bb c4 4c dc b6 61 0b 7f ba
       0.01818686 -0.0049122917 -6.5654476e-06 -0.00097291736
0003f0 ea eb 6d ba 68 14 31 ba 64 e6 58 bb 14 ef 0b b7
       -0.00090759865 -0.0006755055 -0.0033096308 -8.34071e-06

conv2.bias f4 [32]
000000 05 15 84 bc bb b2 c8 3c e0 55 bd bc 9f 1d 39 bd
       -0.016123304 0.024499288 -0.023112237 -0.045194265
000010 6a 62 33 bd 5b c5 9a 3c 60 b5 c7 bb da ee 87 3b
       -0.043795027 0.018892935 -0.0060946196 0.0041483464
000020 ea 27 37 bd 6a 55 d0 3c 85 f3 cc bc 19 45 72 bc
       -0.0447158 0.025431354 -0.025018463 -0.014786982
000030 59 14 5f bd f3 f1 d0 bb 30 46 2f bd b7 91 52 bb
       -0.054462764 -0.006376499 -0.042791545 -0.003213031
000040 e4 0f c5 bb 7f 04 41 bc 45 8c 58 bd d1 c2 3c bd
       -0.006013857 -0.011780857 -0.052868146 -0.04608423
000050 95 a9 43 bd ea 53 90 bc aa 35 d5 bc 72 ae 4e 3c
       -0.047769148 -0.017618138 -0.026026566 0.012614833
000060 10 d1 18 3d 88 2d c1 bc 83 15 1e bd 74 d6 51 bd
       0.037308753 -0.023581281 -0.038594734 -0.05122991
000070 64 7f 89 bc 47 ef 02 bd bd c4 e5 bc be 39 39 bd
       -0.016784377 -0.031966474 -0.028047914 -0.045221083

layer1.0.weight f4 [16, 1, 5, 5]
000000 89 d5 01 bd 85 24 aa ba 80 8d a5 3d c4 fe 23 3e
       -0.031697784 -0.0012980854 0.080836296 0.16015154
000010 4d d7 2b bd 44 c4 12 3e 1f 1b ca bc 86 b8 6b bd
       -0.041953374 0.14332682 -0.024671135 -0.057549022
000020 10 87 19 be 90 d6 19 3d eb 31 1f be 3a 11 10 3e
       -0.14992929 0.03755814 -0.15546386 0.14069071
000030 4b bc 15 3e eb 55 03 3c 37 fb 00 bd 3d 06 d0 3c
       0.1462261 0.00801609 -0.031489577 0.0253936
000040 a5 6c 17 bd ac b3 a1 bc a7 4e 66 bd ea 31 f5 3c
       -0.036968846 -0.019738995 -0.056227352 0.029931027
000050 e6 7b f4 3d 7c 3c 09 3d 1f 02 9c bd fc 4f a1 bd
       0.11937694 0.033504948 -0.07617592 -0.07876584
000060 df a0 2c 3d c7 74 21 be a3 f0 a2 bd be 7e cc 3c
       0.042145606 -0.15767203 -0.07956054 0.02496278
000070 98 48 0c 3e 80 d2 3c bd a5 b9 3f 3e 92 ba 04 be
       0.13699567 -0.046099186 0.18723162 -0.12961796
000080 27 15 2c 3d cc 74 e4 bd b0 a0 d1 3d 08 25 07 bd
       0.04201236 -0.1115509 0.10235727 -0.0329943
000090 a5 f3 d2 bd 89 c5 13 bc c1 55 13 bd 11 94 0e bd
       -0.10300378 -0.009019264 -0.035970453 -0.034809176
0000a0 6d f0 0b be 1b ca 7c bd ca f5 ac bd 45 a3 17 3e
       -0.13665934 -0.06171618 -0.08445318 0.14808376
0000b0 c5 8e 9b bd 16 0c 64 3d 7d b3 07 3e 5a 4b 8a 3d
       -0.075955905 0.05567559 0.13252063 0.067526534
0000c0 2a 6a eb 3d 7f d9 01 3e 25 14 84 bd 2f eb 14 be
       0.114948586 0.12680624 -0.06449155 -0.1454284
0000d0 59 a5 7b 3d 40 e3 96 3d 72 10 f8 bd ac 47 28 3e
       0.061436985 0.07367563 -0.12112512 0.1643359
0000e0 6f 5a 23 3e 33 0c 59 3d 9c 68 66 bc 5b 68 b4 bd
       0.15952466 0.05299015 -0.014063027 -0.08808967
0000f0 54 5b 05 3e 4c 1d e0 bd 33 36 fe 3d ff 8d b7 bc
       0.1302312 -0.10943088 0.124126814 -0.022406576
000100 54 de 01 3c 09 1f 8d 3b 65 ff d5 bd 6a 95 b5 bb
       0.007926542 0.004306678 -0.10449103 -0.005541493
000110 a8 c2 40 3e d3 0c a5 3d e7 20 ac bd 79 e4 1a be
       0.18824255 0.08059087 -0.08404713 -0.15126218
000120 74 10 17 3e 5d f8 cd bd 50 32 5f bd 1c 8c 9e 3c
       0.1475237 -0.10057137 -0.05449134 0.019353919
000130 be 2d a2 3d da 6c ac 3d 92 7a af bc e4 99 50 3c
       0.07918881 0.08419199 -0.02142075 0.012732003
000140 ad c4 9f 3d c1 a6 30 3d 0a ed 88 3b 3c e0 4d bd
       0.07801185 0.04312778 0.004178648 -0.050262675
000150 1e 73 62 bd 2c 52 55 bd 22 41 49 bd 60 9b e7 3c
       -0.055285566 -0.05208032 -0.04913438 0.02827233
000160 50 79 a7 3b d5 c3 ab 3c ed 78 e8 3d 47 fa e1 3b
       0.005110897 0.020967403 0.1135119 0.0068962905
000170 53 05 8f bd da 31 04 3d c8 41 92 3d 52 1e be bd
       -0.069834374 0.032274105 0.07141453 -0.09283127
000180 f6 4a 96 3d bd 74 a5 bd ae 52 7c 3d f1 89 3c bd
       0.073385164 -0.08078907 0.061602287 -0.04602999
000190 0c 9e 0f be 1f de 17 be b2 ca 38 3e d4 68 07 be
       -0.14025134 -0.14830826 0.18046072 -0.13223583
0001a0 bb c2 83 3c fd 4f 8f bc df 08 31 3e a0 b3 28 3e
       0.016084066 -0.017494196 0.1728854 0.16474771
0001b0 92 d5 34 3b ed 9e ed bd 37 1b 10 bd 54 dd ef bb
       0.0027593118 -0.11602578 -0.035182204 -0.0073200855
0001c0 1a ba 45 3b a0 2d 2a 3e 53 0f da bd 02 27 99 bd
       0.003017074 0.16618967 -0.10647454 -0.07478143
0001d0 3d 25 96 3d 7b b3 ac bc 8f 98 cb 3d 71 90 b5 3d
       0.073313214 -0.021081677 0.099412076 0.08865441
0001e0 ba 94 0e be 15 a0 38 3e 34 e5 59 3d 96 6c cf bd
       -0.13923922 0.18029816 0.0531971 -0.10128133
0001f0 dc ca 5c 3b 2e 4f 07 3d 98 54 02 bb db 63 01 3d
       0.003369025 0.033034496 -0.0019886848 0.03158937
000200 f2 a0 be 3c 66 25 42 ba be c1 26 3d 46 c6 dd 3b
       0.023270104 -0.00074060855 0.04071211 0.006768021
000210 72 24 f9 bc 04 f1 bf bc f5 67 73 ba cd 07 6f bb
       -0.030412886 -0.023430355 -0.0009285205 -0.0036473155
000220 6b 58 56 39 c3 c3 20 bc 00 ca 11 ba 4b 22 00 bd
       0.00020441569 -0.009812298 -0.00055614114 -0.031282704
000230 a4 7a 29 bd 1a fb dc 3c 53 74 d4 bb c0 b5 6a 3b
       -0.041376725 0.026975203 -0.0064835935 0.0035813898
000240 9f 77 7b 3c fe fd 3f bc 4e 69 06 3c f6 04 fa 3b
       0.015348344 -0.011718271 0.0082038175 0.007629986
000250 96 da 11 3d 3c 06 9b 3b 10 f1 15 be ed a4 06 be
       0.03560885 0.004730968 -0.1464274 -0.13148852
000260 37 aa 52 bd 3d 23 88 3d e4 0b 28 3e f4 91 d1 bd
       -0.05143186 0.06647346 0.16410786 -0.102329165
000270 15 fc 0c 3e 00 41 97 bd fa 16 1d 3e 25 62 27 3e
       0.13768037 -0.07385445 0.15340796 0.16346033
000280 20 bf ca bc be 34 3e 3e d4 28 38 3d 8f 57 e0 3d
       -0.024749339 0.18574807 0.04496081 0.109542005
000290 94 e6 0d 3e 9e 77 15 be bd a1 eb bd 5d 9d 73 3d
       0.1385749 -0.14596412 -0.115054585 0.059476245
0002a0 2e 3a d4 bd fe 31 b8 bd d7 6f a7 bd b9 9e 09 3d
       -0.103626594 -0.0899391 -0.08175629 0.033598635
0002b0 17 cd 0f be 0d 5b 97 bd e6 f5 31 3e 44 e3 b6 3d
       -0.1404308 -0.073904134 0.17378959 0.08930066
0002c0 15 71 4b bd 1b 4d 5b 3d c7 40 9e bd 7f a0 87 ba
       -0.04966839 0.05354033 -0.07727199 -0.0010347514
0002d0 e8 ac fb bd 2d a5 02 bc 33 8e a9 bd 4a bb e3 bd
       -0.122888386 -0.007973951 -0.082790755 -0.11119707
0002e0 1f fe ec 3d 0f f6 04 3d e2 de db 3d b2 ef 11 3e
       0.11571907 0.032461222 0.10735871 0.14251593
0002f0 53 64 1d 3e 4d 68 00 bc 14 6f 00 be 41 75 ba bd
       0.15370302 -0.007837367 -0.12542373 -0.09104396
000300 fa 3a f9 3c 44 11 46 bd a9 87 dc 3d 9f 26 5c bd
       0.03042363 -0.04835631 0.107680626 -0.05374777
000310 54 b5 11 3e 1d fb be bc 5e 7e db bd 2a 40 9e bc
       0.14229327 -0.0233131 -0.10717462 -0.019317705
000320 3a 8c 3f 3d 77 59 0f bc 63 db 27 3d 13 00 5c 3c
       0.04676459 -0.008749357 0.040980708 0.013427752
000330 24 f0 e9 3c 68 05 fb 3c 16 05 bc 3b 55 a5 3e 3d
       0.02855689 0.030642226 0.005737911 0.04654439
000340 28 b1 43 bb ea da 05 bc 4b 2b bb bc 4f b2 f3 3b
       -0.0029860232 -0.008169869 -0.022847792 0.0074370275
000350 4a 03 fa bc 7b 56 25 3d 4e b1 a1 bc 49 75 8d 3d
       -0.030519146 0.040365677 -0.019737866 0.06907136
000360 71 29 5f bc 6e e2 bc 3c e0 54 12 bd ec 31 79 bb
       -0.01362072 0.023057189 -0.035725474 -0.003802414
000370 a3 67 69 bd b8 41 2d 3d 82 66 7e 3d 15 ed 5f bc
       -0.0569836 0.042299002 0.062109478 -0.013667365
000380 a9 50 13 bc 28 d3 00 bd 0a db 02 be 32 f3 11 bd
       -0.008991399 -0.031451374 -0.1277887 -0.03563232
000390 8e 84 84 3d 98 80 34 3d 46 8e 25 3e d0 e2 19 be
       0.06470595 0.04406795 0.16167554 -0.15027928
0003a0 7b 5d 2a 3e 09 da 26 be 64 68 be 3c 0f 2b ac bd
       0.16637222 -0.16294111 0.023243137 -0.0840665
0003b0 b3 8d c6 3d c1 ed 11 be 06 83 8e bd 3f 9b 12 be
       0.09694996 -0.14250852 -0.069585845 -0.14317034
0003c0 52 7f 0a be 05 e5 64 3d cc 15 ef 3c 10 21 5d 3d
       -0.13525131 0.055882473 0.029185198 0.05398661
0003d0 cd f9 b6 3c 8d 2a e7 3d d7 6a 82 3d be c8 3c bd
       0.022335911 0.11287413 0.06368034 -0.04608988
0003e0 59 a7 41 3e 0b f3 a8 3d b6 3e 01 bd 57 92 80 3c
       0.18911494 0.08249482 -0.031553946 0.01569478
0003f0 18 95 8d bc 59 a1 0b bd ff 36 82 3d 5f 14 52 3c
       -0.017283008 -0.03408942 0.06358146 0.01282224

layer1.0.bias f4 [16]
000000 aa 2c 2d bc 4d 5b 7e 3c 8b 28 34 3d 5c 0e 0e bd
       -0.010569731 0.0155246975 0.043983977 -0.034681663
000010 3b cd 3e 3d d7 50 1e be 58 ec 17 3e 0d e0 c0 bd
       0.04658244 -0.15460525 0.14836252 -0.09417734
000020 9f 3b 02 be d8 0f 0f bd cd b7 0f bd 7a 77 14 be
       -0.12718056 -0.03492722 -0.035087395 -0.14498702
000030 c7 a2 b6 bd 48 cf 1d 3e fc c1 a4 bc 3e 25 50 3c
       -0.08917766 0.15411103 -0.02011203 0.012704192

layer2.0.weight f4 [32, 16, 5, 5]
000000 08 72 2d 3b 21 17 14 bc e4 fc 5d 3b 75 e6 69 3c
       0.0026465673 -0.0090387175 0.0033872658 0.014276137
000010 74 aa 63 bc 6c 9f 34 bc 2d 18 81 3b e3 40 b4 3a
       -0.01389562 -0.011024337 0.0039396496 0.0013752248
000020 5a 36 97 bb 7c 6c 58 bb 57 7e d7 bb f4 09 00 3c
       -0.0046146335 -0.0033023646 -0.00657634 0.007814873
000030 da 0e 48 bc 22 f2 83 3c 00 b9 86 bc ef 4b b3 3b
       -0.012210572 0.016106669 -0.016445637 0.0054716985
000040 c4 42 6b bc bc 5a 40 3c ee e5 7b bc c4 24 1c 3c
       -0.01435918 0.011740383 -0.015374644 0.00953025
000050 67 f4 3d bc 4c da f1 ba 6e 1c 7c bc 19 cf 76 bc
       -0.011593915 -0.0018451898 -0.015387638 -0.015064024
000060 84 6a 2d ba 1e c2 8f 3c e6 d7 7c ba 8e fb fd bc
       -0.00066152983 0.017548617 -0.00096452085 -0.03100374
000070 7f bf 08 3b 50 d7 b4 3b 66 88 1f bc 10 f4 ad bc
       0.0020866094 0.0055188313 -0.00973711 -0.021234542
000080 ff ef 78 bb 8a 82 e5 bc b1 00 89 3c a1 a5 8d bb
       -0.0037984846 -0.028016347 0.016723963 -0.004322723
000090 44 02 66 3c 1c 2e cf bb bc 8e 1b 3c f5 a3 e7 3a
       0.014038626 -0.0063226353 0.00949448 0.0017672764
0000a0 10 d5 8c 3b 00 fc c2 bc f8 a5 cb bc 64 7f f9 bc
       0.00429786 -0.023801804 -0.024859414 -0.030456252
0000b0 68 2f 64 bc b5 22 2c bd 7a 3b f9 bc 1b 08 37 bb
       -0.013927318 -0.042025287 -0.030423868 -0.0027928415
0000c0 0f 5b 1a bd 7d bc 3a bc 48 cd 02 bd 7f d1 a0 3b
       -0.037684496 -0.011397478 -0.031934053 0.0049077864
0000d0 8d fb d8 bc 44 4a 20 bc 71 57 82 3b f1 1d 21 3c
       -0.026487136 -0.009783331 0.003977709 0.009833799
0000e0 88 24 d1 bc ae e3 80 3c 66 50 a0 3c d3 ab a9 3c
       -0.025530115 0.015733566 0.019569587 0.020711815
0000f0 b8 8b 83 bc d3 6f be bc 85 a5 08 bc c6 eb 01 bc
       -0.016057834 -0.023246681 -0.008340244 -0.007929748
000100 1c f4 a6 3c 0c 55 af bc de ce ec bc 4c 9d d2 3c
       0.020380072 -0.021402858 -0.028907236 0.02570977
000110 07 6e f7 ba 7b 31 dd bc 3a 61 ec bc 16 9c 80 bc
       -0.0018877395 -0.027001133 -0.028854955 -0.015699428
000120 8f 9d 93 3b 8b 9a c2 bc 83 3e 4a 3b 53 d2 bc 3a
       0.0045048664 -0.023755332 0.0030860014 0.0014405943
000130 8e 36 3a bb 09 b4 6d bb 25 9d 64 3b ee a3 91 ba
       -0.0028413865 -0.003627064 0.0034883705 -0.0011111477
000140 d5 8e 9b bc c8 45 00 bb 11 f8 e8 bb f4 7d 8f bb
       -0.018989006 -0.0019572843 -0.00710965 -0.0043790285
000150 a9 bc 23 bb ec 02 8e 3b d0 c8 3a 3c d3 26 6d bc
       -0.0024984276 0.0043338444 0.0114004165 -0.014474588
000160 68 f4 bf bc e5 17 50 3c b7 92 15 3c 31 fc 48 3b
       -0.023431972 0.012701009 0.009129218 0.0030667896
000170 9b 1c 69 bb 1e 99 9a bb eb b8 70 39 e2 0c 0d 3c
       -0.0035570029 -0.00471796 0.00022957071 0.0086090285
000180 0d e3 0d 38 f4 cb e6 3b a7 f4 62 39 5a 11 a0 b7
       3.3828477e-05 0.007043356 0.0002164418 -1.9081566e-05
000190 d9 ac c3 3b 94 11 b0 3c eb 8e 08 3c c6 58 6a 3c
       0.005971533 0.021492757 0.008334856 0.014303392
0001a0 e7 f0 81 bc 61 86 7f bb 76 7c 6f 3c 64 22 ad 3c
       -0.015861942 -0.0038990008 0.014617076 0.021134563
0001b0 16 43 89 bc 3f 34 8d bc 0f 0a e4 bc e1 74 cc bc
       -0.016755622 -0.017236827 -0.027836828 -0.024958076
0001c0 04 3d 77 bb 61 88 98 3c 6e 47 6a bc 85 2f 3e bc
       -0.0037725577 0.018619718 -0.014299257 -0.011608009
0001d0 54 59 72 3c 55 db 8c b9 8f bc 1c bc 97 20 2e 3c
       0.014791805 -0.00026866296 -0.00956644 0.010627887
0001e0 27 6b 22 bc 89 ac 43 3c b4 26 04 bc 94 98 3a bc
       -0.009913242 0.011942991 -0.008065868 -0.0113889165
0001f0 ca f9 b8 bb 81 75 ee b6 1e d3 96 37 29 8d 29 37
       -0.0056450116 -7.106632e-06 1.7979703e-05 1.0106051e-05
000200 00 75 ae 38 d6 37 78 38 dd 20 b9 b6 2f 31 40 35
       8.3187595e-05 5.917981e-05 -5.5172554e-06 7.1597145e-07
000210 b5 88 01 b8 4e af e6 37 ae a5 80 b8 a8 83 8d b5
       -3.0883315e-05 2.749977e-05 -6.134376e-05 -1.0543636e-06
000220 6d cd 52 38 f2 9f 57 35 cc 40 12 38 a2 0d 1e b8
       5.025922e-05 8.032649e-07 3.486946e-05 -3.7682832e-05
000230 41 d9 6a b7 95 e9 cd b5 de bb 4c 38 ce d7 ac b6
       -1.399807e-05 -1.5341672e-06 4.8812355e-05 -5.1511224e-06
000240 c9 86 83 b7 c2 24 2d b7 18 77 35 38 c0 87 6e 36
       -1.5679181e-05 -1.0320162e-05 4.3264678e-05 3.554378e-06
000250 df ab d9 b6 d7 7d f4 b5 ac 12 c9 3c 6f 4e 09 3c
       -6.4871124e-06 -1.8216041e-06 0.024545036 0.008380516
000260 1c 8c 98 3c 5a 5b 99 3c 8a c2 1c bc 7e 27 02 bd
       0.018621497 0.018720318 -0.009567866 -0.031775944
000270 53 dc 25 bd 50 16 bb 3b 80 e7 bf 3c a0 46 dd 3c
       -0.04049332 0.005709447 0.023425817 0.027011216
000280 d5 f0 a4 bc 4f 3f 8f 3c 55 7c e1 3b 2b 48 14 3c
       -0.020134369 0.017486243 0.0068812766 0.009050409
000290 bc 92 90 bc 65 df fd bc 7b 46 b6 3c 16 1f b5 3b
       -0.017648093 -0.030990312 0.022250405 0.0055273874
0002a0 24 72 77 3c 91 f0 a6 bc 5f 52 81 3c 91 e9 fb bc
       0.015102897 -0.020378383 0.015786348 -0.030751022
0002b0 e5 21 3b bd e4 6d 8d 3c 96 e9 01 3c 1e 72 1e bb
       -0.04568662 0.017264314 0.007929226 -0.0024176906
0002c0 ff 2e af ba 81 ef 5d ba 1a 25 3d bb cc eb 87 ba
       -0.0013365446 -0.000846617 -0.0028861226 -0.0010369956
0002d0 74 0a 79 b8 c7 18 6b 3a 99 0c 32 3b 49 a8 d0 3a
       -5.937596e-05 0.00089682307 0.0027168153 0.0015919294
0002e0 85 c6 34 bb 6b 6d 11 ba e4 b5 8f b9 a5 b5 a7 ba
       -0.0027584147 -0.00055476156 -0.00027410605 -0.0012795223
0002f0 e7 a3 a3 3b d1 34 ce 3b 6a 0b 77 ba 6f ac 33 3b
       0.004993904 0.0062929173 -0.0009424003 0.002741601
000300 4c af 97 ba a2 2a 33 bc 96 35 f5 ba 4a 1a 88 37
       -0.0011572628 -0.010935457 -0.0018707986 1.6224705e-05
000310 f3 e7 c8 b8 ad ed b3 b8 a1 dc a1 bb ba f2 3c b9
       -9.579947e-05 -8.579656e-05 -0.004939631 -0.000180195
000320 1f 47 0d b9 e3 7e 0e b9 72 92 51 b8 7e 68 08 39
       -0.00013473303 -0.00013589444 -4.996587e-05 0.00013008897
000330 86 af 4e ba a7 24 b2 b7 6e 89 12 b8 c9 de 87 3a
       -0.00078844314 -2.1236321e-05 -3.4937104e-05 0.0010366078
000340 9e a6 86 b8 89 61 2d b9 7f d6 d1 38 50 81 02 ba
       -6.420653e-05 -0.000165349 0.000100058496 -0.00049783755
000350 d8 f5 6c b9 e8 d6 f5 b8 90 4b 1b ba 8a 06 a5 b7
       -0.00022598298 -0.0001172254 -0.00059240405 -1.9672578e-05
000360 90 bc 1a 3a 88 79 0a b9 a7 e0 6b b8 10 76 06 b9
       0.0005902732 -0.0001320598 -5.623759e-05 -0.00012823218
000370 8f 7d 89 37 64 de db b5 b5 1a be 36 fc 9e 28 38
       1.639014e-05 -1.6381496e-06 5.6655504e-06 4.0202387e-05
000380 d9 75 bd b8 a0 53 b8 ba cc ac 3d 3c a8 56 c7 3b
       -9.034173e-05 -0.0014063008 0.0115768425 0.0060833283
000390 5d a8 df bb 7d 6e 73 3b 1e 36 97 3a 74 b8 2d bb
       -0.0068254904 0.0037144714 0.0011536514 -0.0026507648
0003a0 20 76 54 bc 9c 03 49 3c 3f 13 33 bc b9 6e 47 bb
       -0.012967616 0.012268927 -0.010929882 -0.0030430986
0003b0 e2 89 19 bc 72 55 9b bb c3 57 05 bc 5a 98 76 bc
       -0.009371253 -0.0047404105 -0.0081386 -0.015050972
0003c0 32 12 6f bb 64 de 50 bc 7b 9c a9 bb 6b de 6f bb
       -0.003647935 -0.012748335 -0.0051761246 -0.0036601077
0003d0 8e d7 96 bb f5 6e fd 3b 6a a0 0d 3c f2 95 9f 3c
       -0.004603333 0.0077341744 0.008644203 0.01948068
0003e0 9c fc 94 3c 4a f7 a0 bb c4 4c dc b6 61 0b 7f ba
       0.01818686 -0.0049122917 -6.5654476e-06 -0.00097291736
0003f0 ea eb 6d ba 68 14 31 ba 64 e6 58 bb 14 ef 0b b7
       -0.00090759865 -0.0006755055 -0.0033096308 -8.34071e-06

layer2.0.bias f4 [32]
000000 05 15 84 bc bb b2 c8 3c e0 55 bd bc 9f 1d 39 bd
       -0.016123304 0.024499288 -0.023112237 -0.045194265
000010 6a 62 33 bd 5b c5 9a 3c 60 b5 c7 bb da ee 87 3b
       -0.043795027 0.018892935 -0.0060946196 0.0041483464
000020 ea 27 37 bd 6a 55 d0 3c 85 f3 cc bc 19 45 72 bc
       -0.0447158 0.025431354 -0.025018463 -0.014786982
000030 59 14 5f bd f3 f1 d0 bb 30 46 2f bd b7 91 52 bb
       -0.054462764 -0.006376499 -0.042791545 -0.003213031
000040 e4 0f c5 bb 7f 04 41 bc 45 8c 58 bd d1 c2 3c bd
       -0.006013857 -0.011780857 -0.052868146 -0.04608423
000050 95 a9 43 bd ea 53 90 bc aa 35 d5 bc 72 ae 4e 3c
       -0.047769148 -0.017618138 -0.026026566 0.012614833
000060 10 d1 18 3d 88 2d c1 bc 83 15 1e bd 74 d6 51 bd
       0.037308753 -0.023581281 -0.038594734 -0.05122991
000070 64 7f 89 bc 47 ef 02 bd bd c4 e5 bc be 39 39 bd
       -0.016784377 -0.031966474 -0.028047914 -0.045221083

out.weight f4 [2, 1568]
000000 52 de 9d 3c f0 97 42 bc 5e 34 f2 3b 04 90 8b 3b
       0.01927105 -0.011877045 0.0073914966 0.0042591114
000010 e9 e2 9f 3c 79 c1 82 3c 51 9e ad 3c 67 3b 99 3b
       0.019517379 0.015961396 0.021193655 0.0046762708
000020 5d e6 89 bc 15 59 86 3b 30 fa dd 3a 45 ef 8d 3c
       -0.016833479 0.004099975 0.0016935524 0.017326007
000030 d9 d9 81 bc f1 57 ab bc 2e 1f 70 3b f7 85 35 3b
       -0.015850948 -0.020915957 0.0036639678 0.0027698257
000040 79 6d 8f bc 96 0d 48 3c f4 29 22 bc 93 e1 e3 bb
       -0.017508255 0.01221027 -0.009897698 -0.006954381
000050 ca c3 21 3c 8d a2 b0 3c 9b e8 f4 3b d4 1d 59 bc
       0.00987334 0.021561885 0.007474018 -0.0132517405
000060 05 bf 3e bb bb 34 c3 3a 56 25 e1 bb 16 f0 ef b9
       -0.0029105556 0.0014893034 -0.006870906 -0.0004576451
000070 70 4d 90 bc d6 0c b0 3b ab 7c dd b9 99 ea 00 bc
       -0.01761505 0.005372624 -0.0004224529 -0.007868432
000080 63 7d b2 3c 9a ca a5 bc a5 7d af 3b 5b 76 4c b8
       0.021788305 -0.02023821 0.005355554 -4.8747617e-05
000090 ea 6b 30 bc b4 38 7e bc 1c 1c 9c bc b5 e7 93 bc
       -0.010767916 -0.015516449 -0.019056372 -0.018054822
0000a0 c1 6d 7b 3b 0c 81 20 3b 00 92 c0 3c 9a e2 15 3c
       0.003836498 0.002449098 0.023507118 0.009148264
0000b0 d7 23 06 3c 83 a5 aa bc 64 44 ad 3b 99 68 88 3c
       0.008187256 -0.020830875 0.005287694 0.016651439
0000c0 fc 32 ca bc 28 39 e5 39 81 1c 1c bc f2 00 54 bc
       -0.024682514 0.00043720868 -0.00952828 -0.0129396785
0000d0 16 92 9f ba b3 94 9d bc 4f a7 fb 3b 3a d3 a6 3c
       -0.0012174274 -0.019235944 0.007679857 0.020364393
0000e0 65 1d 07 3b 3f c7 a0 3c 2f 8a e5 3c 54 7f 8a bc
       0.0020616886 0.019626258 0.028019993 -0.016906418
0000f0 e9 df 5c bb 2c 39 41 bc b0 df bf bb 49 c3 c1 bb
       -0.0033702797 -0.011793416 -0.005855523 -0.0059131724
000100 f1 51 e1 3b 5f dc c3 3a 5e 36 08 3c ca 8f 0f 3c
       0.0068762233 0.0014942995 0.008313743 0.008762309
000110 10 8e 99 bb 9e d6 61 bc 49 28 b8 bc 59 83 91 bc
       -0.0046861246 -0.013784079 -0.022480147 -0.017762827
000120 f3 8e 08 3c c0 34 c8 3c af 74 48 ba 54 9e 43 bb
       0.008334863 0.024439216 -0.0007646782 -0.002984901
000130 0f af 18 3b 89 94 80 39 86 95 69 bb d8 15 96 3a
       0.0023297702 0.0002452473 -0.0035642101 0.0011450602
000140 3f 77 b0 bb 73 58 22 3c c1 dc 76 bc 0b 7d 40 3c
       -0.005385309 0.009908783 -0.01506728 0.011748563
000150 6c f2 0e 3c 31 8e 87 bc a9 86 c8 3c 66 5a 1e bc
       0.00872479 -0.016547294 0.024478273 -0.009665107
000160 4b ea 9e bc a3 0c 61 bc 2b ec 4e 3c 94 d8 b6 3c
       -0.019398829 -0.013735923 0.012629549 0.02232007
000170 12 a4 6a 3c 2a cb cf 3c a7 68 80 3c 9b b5 aa b9
       0.014321344 0.02536543 0.015674902 -0.00032560233
000180 4a dd 03 bc 3d 17 91 bc 1c b6 08 3c 64 47 9c bc
       -0.008048365 -0.017711276 0.0083441995 -0.01907701
000190 00 e1 51 3c fb c9 4e bc a9 dd c1 39 25 80 3b 3c
       0.012809992 -0.012621398 0.00036976978 0.011444126
0001a0 b3 d3 bf 3a bc 92 14 bc 8f 4b c5 bc 24 30 bc 3b
       0.0014635235 -0.009068187 -0.02408388 0.0057430435
0001b0 60 8d dc 3a 90 53 ab 3b 58 cc fc 3b ce b3 a4 3b
       0.0016826801 0.0052284673 0.0077147894 0.005026317
0001c0 d0 af 05 3c 50 69 01 bb 30 a7 ed ba 10 90 70 3c
       0.008159593 -0.001974661 -0.0018131491 0.014682785
0001d0 e4 f6 13 3c 64 21 cc 3c 96 92 09 bc e8 99 40 3b
       0.009031031 0.024918266 -0.008396765 0.002938861
0001e0 6c 3e 19 bc 15 88 47 bc b4 f4 92 bc e0 c4 d3 ba
       -0.009353261 -0.012178441 -0.01793895 -0.0016156696
0001f0 3c f9 b5 bb 48 20 0e 3c 90 6f 17 bc d4 46 ba bb
       -0.0055533927 0.008674689 -0.009242907 -0.005684713
000200 c0 01 80 bc 78 b9 e3 bb 10 7a 32 3b ee 4b a9 3c
       -0.015625834 -0.0069496 0.00272334 0.020666089
000210 a8 c3 48 3c a5 5d 3a bc 40 ba 9c 3a 6e 61 8c bc
       0.012253679 -0.011374866 0.0011957362 -0.017136302
000220 e8 01 4e 3c b5 51 cc bc 5d 1c 34 bc 1f 55 c6 3b
       0.012573697 -0.024941305 -0.01099309 0.0060526277
000230 4a 8a 9f 3c 6c f9 e0 bb b4 7d d2 bb 13 e5 74 bc
       0.019475121 -0.006865671 -0.0064236764 -0.014947194
000240 d0 46 85 bc ca 82 98 bc 88 7e 77 3b 68 9f 0e bb
       -0.016269118 -0.018617053 0.0037764627 -0.0021762494
000250 0e 27 4d 3c ec 1d 6c bc f2 11 08 3c 5c f3 5a 3c
       0.012521518 -0.014411431 0.00830506 0.013363685
000260 01 69 7b bc 51 90 c5 bc d0 25 84 ba 30 0e 16 bc
       -0.015344859 -0.024116667 -0.001008207 -0.009158656
000270 03 78 44 3a e7 af 92 3c 2c 08 8e bc 67 cf 91 bc
       0.000749469 0.017906142 -0.017337881 -0.017799092
000280 b3 ee 5e 3c 61 6c 81 3c 02 4b c3 3b 19 ce 0b bc
       0.013606715 0.01579875 0.0059598694 -0.008533024
000290 ad 0c b2 3a 35 ee c3 3b 04 55 93 bc 49 82 cd ba
       0.00135841 0.005979324 -0.017984875 -0.0015679087
0002a0 4f a6 96 3c 23 a9 75 bc 65 71 90 ba 7e 1b 97 3c
       0.018389849 -0.014993939 -0.0011020122 0.018445726
0002b0 40 fb 6b 3c 41 49 f6 bc d2 a6 29 3c 2c 1d ba ba
       0.014403164 -0.030064227 0.0103547145 -0.0014199368
0002c0 7c dd 9c bb 85 1c 5f 3c 37 38 a9 bb 29 6d c5 3b
       -0.004787145 0.013617639 -0.005164172 0.006024976
0002d0 f7 8d ac 3a 63 91 c2 3b bd 65 bd bc 4f cd f3 3b
       0.0013164867 0.0059377416 -0.023119802 0.007440246
0002e0 45 ce 09 bc 5f 5f e9 3a a4 31 af 3c df e2 dd ba
       -0.008410995 0.0017804912 0.021385975 -0.0016928575
0002f0 dd c4 c3 3c 71 96 4d 3c 8c f9 82 bc a7 19 21 3b
       0.023897583 0.012548075 -0.015988134 0.002458194
000300 7f b6 de 39 d8 9b 76 ba e3 7c 27 bc 38 78 37 3c
       0.0004247911 -0.0009407378 -0.010222646 0.011198096
000310 05 71 0d bb e1 b9 29 bc 83 b8 cc 3c fd 7b 48 ba
       -0.0021582257 -0.010359258 0.024990326 -0.000764787
000320 fc 26 8b 3c d0 35 73 3c e7 c2 34 bc 13 cd ba bc
       0.016986363 0.014844373 -0.011032796 -0.022802865
000330 73 bf 01 3d 5e 9d c5 bc dc 6f 6d bc 01 cc c5 bc
       0.03167672 -0.02412289 -0.014492001 -0.024145128
000340 d7 f9 b7 bc 91 a2 73 3c bd c3 47 bc a8 ed 05 3c
       -0.022458 0.014870302 -0.012192664 0.008174337
000350 2e 8d 08 3c 28 af 03 bd e2 09 fa bb 78 65 f5 bc
       0.008334441 -0.032149464 -0.0076305727 -0.02995561
000360 8e 62 0f bc 33 ed 93 ba 59 00 29 bc 2e 4f a7 bc
       -0.008751525 -0.0011285901 -0.010315024 -0.020423498
000370 3f ee ab 3a 8a 8a da 3c 5b db e8 3c 5b b0 4b 3c
       0.0013117268 0.026677389 0.02842491 0.012432183
000380 5a 36 d8 bc cf 95 0a 3d 1d 78 20 bc 3c c3 ce bb
       -0.026393104 0.033834275 -0.009794262 -0.006309895
000390 b6 b4 c3 3c df b2 12 3d 6b 97 06 bb 08 75 02 3c
       0.02388988 0.035815116 -0.002053703 0.007962473
0003a0 8b 6c 9d ba e0 7b 84 bc b7 9c 71 bc 96 a7 0e bb
       -0.0012010498 -0.01617235 -0.014746836 -0.002176737
0003b0 87 d3 d9 bb 7c e7 c9 3c 9b 3b 64 3b 41 0f 64 bc
       -0.0066475305 0.024646513 0.0034825567 -0.013919652
0003c0 b9 c2 5a bc 0c aa 87 3c cb 49 d8 3c 72 82 ed bc
       -0.01335209 0.016560577 0.026402375 -0.028992865
0003d0 84 d0 43 bc 4a 50 16 bc 9a 72 16 bc 02 02 72 bb
       -0.0119515695 -0.009174416 -0.009182597 -0.0036927466
0003e0 73 35 6e 3c d6 40 8c 3c 9a 2d 1d 3c 37 25 7e 3b
       0.0145391105 0.01712076 0.009593392 0.0038779506
0003f0 64 36 82 bc 13 5d c1 3c a6 77 be 3c 7e d9 e5 bc
       -0.015895076 0.023603952 0.023250412 -0.02805781

out.bias f4 [2]
000000 b9 ae 0a 3b d0 d7 f9 bb
       0.0021161272 -0.007624604
