log/fc1/best_model.pt (torch_old, 67057 bytes, 10 tensors)

conv1.weight f4 [16, 1, 5, 5]
00000000: 63f5 fdbc 8612 d23a c46e 8ebd 1a09 693b
00000010: 4b54 1cbd b2b0 823d 6d0e 113c f431 2f3c
00000020: a156 113d 4837 4fbd e6af 27bd 83eb a23d
00000030: 5738 b1bd 6ae5 143e 8dc9 c3bd 9fab 183c
00000040: 47ae d43d bd52 cabd d5f6 b23c c47b dcb9
00000050: 5cfe 583d c6d4 98bd db73 123d d268 29bc
00000060: 3a59 cbbd 0b15 023d ef81 e03c cf68 7d3c
00000070: 2e1f b73c 6fb4 2b3b 0f42 efbc 3229 303d
00000080: 4954 13bd a1fd c03c 3e32 0e3c 9b9f 83bd
00000090: c3a5 7c3d 2217 49bd 5d35 d23b bcd6 fb3c
000000a0: 6371 013d b04c 5a3d d5b0 5c3d 1c97 80bd
000000b0: 2eea ba3c 1a6e 55bd d424 76bd a1d5 fa3b
000000c0: 8d9d 84bd 6904 fe3c d84d 54bd 67da bdbd
000000d0: 96ca 44bd 6a6e 083e 0838 46bd 8833 6bbd
000000e0: cc09 69bc 666d bfbd a3ff 9dbc fb91 1f3d
000000f0: 5cfb a93d 1f81 c2bd 29c6 a13d 6d18 c2bd
00000100: 8ea7 fc3d a49c bc3d a318 953b 6587 62bd
00000110: 8602 0e3d fb84 c0bc cb49 a4bb cdb7 8fbd
00000120: cd31 b93d aa40 8d3d 248e 1a3b c1f0 33b7
00000130: 3caa 8dbb 9b26 dc3b 5c84 ec3b 627d 1dbb
00000140: 315e baba 3c43 49bc 2f2a 0ebd 2c64 913b
00000150: 342d 783c 32f1 80bb 99bb 72bc b593 42bc
00000160: ec61 833c b25b 88bc c98d 16b5 7a55 7338
00000170: 4fc1 e339 84c6 94b3 2e9b bb39 933d 8c3a
00000180: 2eee 3534 4047 3b33 465a 64ba 64c8 d7b4
00000190: 8da9 2abb 38e9 ccba 14d8 223c 517f 643c
000001a0: 7c91 e9ba cda7 a6b8 b708 aa3a f7d8 9e3c
000001b0: 4704 b73b 0417 d0b8 43c2 2d3c cebe 013b
000001c0: 8ecb 123b a7a7 bf3b 6f7b 6f3b 7758 123b
000001d0: d64f b4bb 38f6 153a 1f83 edba bf40 1c3c
000001e0: 89a2 23ba 5f93 2439 8963 1eb9 901b 0c3b
000001f0: 3b4b 0cbb 3923 cd3d 61c6 7cbd 6096 65bd
00000200: ea75 293c 09dc bbbd 4c0a 263e 8dbc 093e
00000210: acd8 0a3e 3f2f 9e3d 3e18 423d 2a38 3ebd
00000220: fef6 b43d 00da a1bc 18f8 eb3b 4daa 09b9
00000230: 3fc3 1a3e b7f4 62bd 1602 83bd 83a2 603c
00000240: dc07 c1bd 2935 5dbc f05a 6f3d b9bc e4bd
00000250: fe6b 343e 6fc4 9bbd 10d8 503d 5fe3 fc3c
00000260: feee 57bc 346f 8e3d c60f 99bd f0ff 993d
00000270: fb98 8d3d 52c8 a2bb f8b0 79bd 0128 4abd
00000280: 46d4 1b3d f4fb f93c ad5f 2b3c ebff 49bd
00000290: e0cc 23bd 8543 d33c c856 113d d425 d23d
000002a0: 1931 5b3c 08c2 9b3c b0b4 033d 7254 bdbc
000002b0: cd84 83bc 1d2c 8cbd 78b9 ae3d 9c6b 02be
000002c0: cef3 b03c 87d3 913c d91e 7f3d 9c0f d03d
000002d0: 4af4 3e3d ff83 d5bd acea 853d 4f87 08be
000002e0: a7d4 ca3d a153 18be 480f febd 5434 ad3d
000002f0: c5c6 c6bd dc3b 2d3e 1e27 3cbd cc16 cbbd
00000300: 998c a33d bfbe 0bbc 496a d23d 494a e4bd
00000310: d853 1d3e d177 253d 67b5 c8bd 2035 12be
00000320: bec1 adbd 559c da3d c79a 8ebc d75e 0cbd
00000330: 5791 833d 7ad8 0cbc d8ab bebc 9f94 acbd
00000340: 7c3b 8cbd d710 d23d de38 983d 0f74 b13d
00000350: 6539 e13c 3385 ac3d 490f 6f3c 3b42 c33b
00000360: 38fd dabd b859 d1bc 82d6 383d 718c 953c
00000370: 8601 a83d adf8 5ebd 2fea e83d f9a2 b2bd
00000380: 0b01 23bd 2391 5fb8 c0f3 0bba 0735 f83a
00000390: ebbe 673b 180c 5a3a 85a7 f13b 883f fa38
000003a0: 6603 353c 6179 f23b cecc f93b 0529 043c
000003b0: 8eb9 b3ba ce8c f7ba 052c 173c 459a ee3b
000003c0: 38fd 28bc 5dd4 4b3c f592 453b 2152 27b9
000003d0: f71d e03b 80ae 20bb e184 0d3b 44d0 9f3b
000003e0: da01 c03b 60f9 d5bb afaf e53b fa36 6f3b
000003f0: 4592 b4bb a446 9c3a 3dce 4f3b 32ce 15ba
-0.031000799 0.0016027249 -0.069547206 0.0035558403 -0.038166326 0.06381358 0.008853537 0.010693062
0.035483006 -0.05058983 -0.040939234 0.079550765 -0.08653324 0.1454064 -0.09559927 0.009318261
0.10384803 -0.09879062 0.021846214 -0.00042053882 0.05297695 -0.07462458 0.03575502 -0.0103399325
-0.09929128 0.03175835 0.027405707 0.015466883 0.022353735 0.0026200076 -0.029206304 0.043008037
-0.035969052 0.02355844 0.008678971 -0.06426927 0.06168152 -0.049094327 0.006415053 0.030742042
0.031602275 0.05329579 0.053879578 -0.06278822 0.022816744 -0.052106954 -0.060093716 0.007654861
-0.06475363 0.031007962 -0.05183205 -0.092701726 -0.048044764 0.1332337 -0.04839328 -0.05742219
-0.014223527 -0.09347038 -0.019286936 0.038957577 0.08299896 -0.09497284 0.07899124 -0.09477315
0.12336646 0.09209564 0.004550056 -0.055304904 0.034670375 -0.02350091 -0.0050136796 -0.07017479
0.09042702 0.06897099 0.0023583258 -1.0725286e-05 -0.004323272 0.0067184693 0.007217927 -0.0024031033
-0.0014218745 -0.012284096 -0.0347082 0.0044369902 0.015147496 -0.0039350027 -0.014815235 -0.011876036
0.016037904 -0.016645286 -5.608568e-07 5.801532e-05 0.0004344084 -6.927897e-08 0.00035783037 0.0010699503
1.6943588e-07 4.3604132e-08 -0.00087109616 -4.0192674e-07 -0.0026041002 -0.001563347 0.009939212 0.01394637
-0.0017819847 -7.946752e-05 0.0012972568 0.019390566 0.0055852267 -9.9225e-05 0.010605398 0.0019797566
0.002239916 0.005848843 0.0036542078 0.0022330561 -0.0055026812 0.00057205884 -0.0018120742 0.009536921
-0.0006242176 0.00015695159 -0.00015105134 0.0021378733 -0.0021407146 0.10016484 -0.061712626 -0.056051612
0.010343054 -0.09172828 0.16214865 0.13450833 0.13559216 0.07723855 0.0473864 -0.04644028
0.088361725 -0.01975727 0.007201206 -0.0001312878 0.15113543 -0.05540916 -0.06396882 0.013710621
-0.09425327 -0.013501444 0.058436334 -0.111688085 0.17619321 -0.07605826 0.050987303 0.030870138
-0.013179539 0.06954804 -0.07473712 0.07519519 0.06913944 -0.0049677277 -0.060959786 -0.049354557
0.038044237 0.030515648 0.010459823 -0.049316328 -0.039990306 0.025789032 0.03548315 0.102611214
0.013378405 0.01901342 0.03215474 -0.023111556 -0.016054535 -0.068443514 0.08531469 -0.12736362
0.02160063 0.01780106 0.062285278 0.10159227 0.04661969 -0.10425567 0.06538901 -0.13332866
0.099038415 -0.14875652 -0.124052584 0.084572464 -0.09705881 0.16917366 -0.045935743 -0.099164575
0.07985801 -0.008529364 0.102741785 -0.11146981 0.15364015 0.04039747 -0.09800225 -0.14278078
-0.08484219 0.10674349 -0.017407788 -0.034270134 0.06424206 -0.008596534 -0.0232753 -0.08426785
-0.06847283 0.10257118 0.074327216 0.086647145 0.027493188 0.08423843 0.014591047 0.005958823
-0.10692829 -0.025555477 0.045126446 0.018255444 0.082034156 -0.054436374 0.11372792 -0.08722491
-0.039795917 -5.3302512e-05 -0.0005338751 0.0018936702 0.0035361599 0.0008317842 0.007374706 0.000119327626
0.0110481735 0.0073997234 0.0076232916 0.00806642 -0.0013711916 -0.0018886568 0.009226804 0.007281574
-0.010314278 0.012440768 0.0030147408 -0.00015956956 0.0068395096 -0.0024518073 0.0021594095 0.004877122
0.0058595957 -0.006529972 0.0070094685 0.0036501274 -0.0055106007 0.0011922908 0.003170862 -0.00057146244

conv1.bias f4 [16]
00000000: 3be7 003e 8c99 5fbd d740 61bd 2332 09be
00000010: ba10 1dbe 2a00 de3d 27fb 5a3d 412d 723d
00000020: bdb6 c03c 889a 14be ce90 62bd 34a5 44be
00000030: 59a9 31bd 8945 84bd 0caf 2ebe 099e 0abe
0.12588207 -0.054589793 -0.054993477 -0.13398032 -0.15338412 0.10839875 0.053462174 0.05912519
0.023524636 -0.14512074 -0.055313878 -0.19203645 -0.043374393 -0.06458575 -0.17058963 -0.13536848

conv2.weight f4 [32, 16, 5, 5]
00000000: 7eda c7bc cce3 1abc 7b45 713c fe88 903b
00000010: d02b 373c a8ae 233c e669 913b 19e1 03bd
00000020: 8539 87bc 6e1b 4b3c 3e93 a53c 8c02 d33c
00000030: ad5b d43c ca77 c63c 5870 b3bc f117 f83b
00000040: 3083 36bc 5500 d33c df55 e4ba f15d d6bc
00000050: 3cf7 25bc f960 bdbc fce7 b6bc 601d a7bc
00000060: a0f1 9f39 fa56 f438 3cc4 d5b7 7d4e a8b9
00000070: 9e44 f1b8 ca1f acb7 2b87 9738 b9ce a939
00000080: 723a abb8 315b f1b9 e534 cfb9 17db 19b9
00000090: 70dc 7638 3aac 6939 f4b0 5cb9 bdc3 22b9
000000a0: 4f45 3c39 d01a 98b6 2a31 e2b8 ef17 5a38
000000b0: 485f 2e37 d126 6eb1 6cf2 35b1 7e00 f1b5
000000c0: 03b5 a5b4 71b3 a9b4 aabc 7fbb ae11 6a3a
000000d0: 444c 1fbc 9cd0 5c3c 77fe 783b f613 67b9
000000e0: c131 133c 0b62 453a e7b2 7aba b606 cf3a
000000f0: 221c 64bb 6d87 f4bb e8d7 62bb 4440 493a
00000100: 4c27 4abb 8f23 f23b 3bad 073c e5a6 f63b
00000110: 755e 133c 2808 273b 3eb6 a7bb 5f4a 9d3b
00000120: c7d7 013a 5604 1ebc bbe4 25ba e97b 14b3
00000130: 5097 1ab2 0e52 bd32 4241 e7b3 1ee5 40b3
00000140: 30b8 bc33 b363 3cb3 48d5 8d34 2878 b1b0
00000150: b795 be32 abae 43b4 ff17 d733 3ea7 6f33
00000160: 8295 8f34 cff2 65b4 45e6 9033 bc80 1534
00000170: d693 c4b3 cfc4 65b2 3a85 64b4 a8dc 82af
00000180: 66a6 5632 1dc1 abb1 6382 91b3 7c76 8130
00000190: 7866 3a33 c17c 0d33 6d78 8633 9b39 c233
000001a0: 8c9a 2231 b6fc 07b2 71d0 8332 2e85 24b2
000001b0: a43d 0634 8fbc 3a33 768c 84b2 c42a 05b2
000001c0: 6d4e 47b3 d07f 3532 58dd 70b4 53b8 34b3
000001d0: ea1f 8ab2 a4e4 88b0 1eb9 28b2 38d1 9e31
000001e0: 0001 4bb0 3251 1eb1 2ef8 38b0 9a52 a1b1
000001f0: 90d8 4d30 653b 743c 8b1c c8b9 4155 e53b
00000200: a8d5 46bb 7987 193b 53bd 31bc 168f a1bb
00000210: 5aa2 b93a a8b6 86ba 10a0 2f3a 2818 91bb
00000220: 1f3a 81bb a777 923a 9724 0cbb b24c 45ba
00000230: 1c5c 1bbc 9ad5 92bb 2111 91bb 858b 013b
00000240: e506 32bb ce24 61bb ff5e cabb 6a37 16bb
00000250: 78f0 e6ba 0a63 e439 3028 1c39 e956 7cba
00000260: faa8 413a 0a60 c6b9 eb08 8fba 459a 44ba
00000270: dc3a 5c3b 2c3c f439 30b6 d1b5 662e 4cba
00000280: 1d4c 5aba 54c4 173a e660 bd39 c522 46b9
00000290: bd5d 70b9 8c7f 373a 1b1f 883a 28b0 98ba
000002a0: ecd4 0bba f0a8 46b9 0171 78b8 443f 2ab8
000002b0: fbe5 8438 16fa f537 4ca5 6bb8 1962 383c
000002c0: e2b6 6c3c 3706 0f3c bd6c 383b da02 7fbb
000002d0: ecf7 99bc 112d 9dbc 524d 8b3b 65bd a73c
000002e0: 801e 5cbb 2f48 d6bc 251c 4db9 e1e6 57bb
000002f0: 796f 983c 14a9 74bb cdc0 b6bb 9bb3 fc39
00000300: 9073 923a 3cd1 b2bc 6e83 a73b ecec 0bbc
00000310: 6314 50bc 57c8 89ba 3217 74bc a82f 5ebb
00000320: 2122 3a38 b9e8 3839 a429 e1b9 0190 b83a
00000330: 2d31 2f3a 1968 f538 1996 5e39 8342 8d37
00000340: 8a87 4d3a 2af3 3a3a ed2d dab9 f0dc a8b9
00000350: 2ae7 9ab9 4512 ebb9 1eff bab7 2c79 3b39
00000360: c1b7 0339 942e 1439 786d d5ba 7e8b e139
00000370: 6e26 f632 1fa4 fbb4 11de f036 d295 c9ba
00000380: 3036 ef36 18c3 40b3 9997 6bb3 0f7d 17b5
00000390: a15a dbb4 15f5 8f32 1813 6a34 f289 0833
000003a0: c658 2a34 251c f5b4 ef38 9934 24c8 6bb2
000003b0: 77b9 2433 e792 b031 4165 b834 e82f 9134
000003c0: 44e6 8432 9eb0 a131 a36d 4ab3 27e4 2b32
000003d0: 388f 8f31 4a26 3230 3343 1cb1 658b e732
000003e0: fe9a 14b0 2174 4a2f e623 b534 cd04 fab3
000003f0: d978 e934 c640 c8b4 906b 9a35 79cb 02b5
-0.024396177 -0.009453725 0.014726038 0.004410862 0.011179879 0.009990372 0.004437673 -0.03219709
-0.01650692 0.0123966765 0.020211812 0.02575805 0.02592262 0.024227042 -0.021904156 0.0075712134
-0.011139676 0.025756994 -0.0017420611 -0.026167842 -0.010129746 -0.02311753 -0.022327416 -0.02039975
0.00030506868 0.00011651027 -2.5482957e-05 -0.00032101935 -0.000115045565 -2.05188e-05 7.225418e-05 0.00032388212
-8.164802e-05 -0.00046035045 -0.00039521526 -0.00014672834 5.885627e-05 0.00022284771 -0.00021046755 -0.00015522442
0.00017954897 -4.5330744e-06 -0.00010785677 5.199754e-05 1.0393393e-05 -3.4655623e-09 -2.6476767e-09 -1.7956042e-06
-3.0865348e-07 -3.1609264e-07 -0.0039022365 0.0008929026 -0.009722773 0.013477471 0.003799347 -0.00022037313
0.00898403 0.0007529563 -0.00095634017 0.0015794847 -0.0034806808 -0.007462433 -0.0034613553 0.0007677118
-0.0030846177 0.007389493 0.008281047 0.0075272196 0.008994688 0.002548704 -0.0051181605 0.0048001255
0.0004953113 -0.009644588 -0.0006328334 -3.457163e-08 -8.998384e-09 2.203981e-08 -1.0768646e-07 -4.4911864e-08
8.787936e-08 -4.3862837e-08 2.641848e-07 -1.2912595e-09 2.2186994e-08 -1.8224334e-07 1.00160825e-07 5.579863e-08
2.6744607e-07 -2.141562e-07 6.747408e-08 1.392354e-07 -9.1538524e-08 -1.3374303e-08 -2.1282622e-07 -2.3803648e-10
1.2494274e-08 -4.9987094e-09 -6.775806e-08 9.419661e-10 4.3399695e-08 3.2942584e-08 6.2617666e-08 9.044307e-08
2.3661952e-09 -7.915494e-09 1.5345195e-08 -9.576338e-09 1.2502147e-07 4.3477993e-08 -1.5430697e-08 -7.751343e-09
-4.6404626e-08 1.0564648e-08 -2.2432266e-07 -4.2077158e-08 -1.6079827e-08 -9.960286e-10 -9.820978e-09 4.6221906e-09
-7.385239e-10 -2.303818e-09 -6.7291495e-10 -4.6951074e-09 7.488632e-10 0.014906739 -0.0003816824 0.0069986884
-0.0030339751 0.0023426695 -0.010848361 -0.0049303873 0.0014162764 -0.0010277824 0.00066995714 -0.0044279285
-0.003943696 0.0011174575 -0.0021384114 -0.0007526382 -0.00948241 -0.0044810297 -0.0044270908 0.0019766998
-0.0027164754 -0.0034354213 -0.006175875 -0.0022921213 -0.0017619273 0.0004356134 0.0001489229 -0.0009625988
0.0007387545 -0.00037837058 -0.0010912692 -0.00074997946 0.003360442 0.00046584138 -1.5624737e-06 -0.00077888963
-0.0008327382 0.0005789448 0.00036121084 -0.00018895704 -0.00022923104 0.0006999902 0.0010385247 -0.0011649178
-0.0005334157 -0.00018945686 -5.923305e-05 -4.059008e-05 6.337088e-05 2.9322731e-05 -5.618231e-05 0.011253857
0.0144479 0.008729509 0.0028140985 -0.0038911612 -0.018794976 -0.019186528 0.0042511607 0.020476053
-0.0033587515 -0.026157467 -0.00019560808 -0.003294401 0.018607842 -0.0037332224 -0.005577183 0.00048199002
0.0011173356 -0.021828286 0.005112103 -0.008540373 -0.012700173 -0.0010511976 -0.014898108 -0.0033902917
4.437764e-05 0.00017634303 -0.0004294637 0.0014081002 0.0006683048 0.000117019 0.00021227486 1.6839482e-05
0.0007840326 0.0007131571 -0.00041614418 -0.00032208068 -0.000295454 -0.00044836305 -2.2291726e-05 0.0001787885
0.00012561587 0.00014131732 -0.0016283235 0.00043019274 2.8655645e-08 -4.6871807e-07 7.1784093e-06 -0.0015379733
7.1290633e-06 -4.488092e-08 -5.485308e-08 -5.643387e-07 -4.085787e-07 1.6758841e-08 2.1799895e-07 3.1790428e-08
1.586478e-07 -4.5655284e-07 2.8539895e-07 -1.3724307e-08 3.8352905e-08 5.138975e-09 3.4346343e-07 2.704321e-07
1.5471535e-08 4.7057958e-09 -4.7131504e-08 1.0005386e-08 4.17813e-09 6.4810435e-10 -2.2739186e-09 2.6955329e-08
-5.4062343e-10 1.841305e-10 3.3739997e-07 -1.16424054e-07 4.348756e-07 -3.7300032e-07 1.1505199e-06 -4.8724866e-07

conv2.bias f4 [32]
00000000: 6919 a6bc d137 0cbd f738 11bd 48f7 54bd
00000010: d57f ceb9 c7c6 633c 0cb1 39bd 4012 2f3c
00000020: 62cb 923b c234 203c db53 e9bc d8de 0fbb
00000030: a379 48bd 1e0e afbb 82a9 d4bb 755d b53c
00000040: 5a12 393c 336a 1fbd 20aa bc3c 0099 ccbc
00000050: 7f3f 84bc d5e3 aa3c 2166 50bd 516a b33b
00000060: 2245 4abd 366e 913c 18a1 3abd 9b00 bbbb
00000070: 8f2f 50bd 061b ca3c 323e 80bd 0df2 1b3d
-0.020275788 -0.03423292 -0.035454717 -0.05199364 -0.00039386624 0.013902373 -0.04533486 0.0106855035
0.0044798115 0.009778203 -0.028482368 -0.0021952894 -0.048944127 -0.005342259 -0.0064899335 0.02213929
0.011295879 -0.03891964 0.02303034 -0.0249753 -0.016143559 0.020860592 -0.050878648 0.0054753204
-0.049382336 0.017752748 -0.045563787 -0.0057068593 -0.050826605 0.024671089 -0.06261863 0.038072634

layer1.0.weight f4 [16, 1, 5, 5]
00000000: 63f5 fdbc 8612 d23a c46e 8ebd 1a09 693b
00000010: 4b54 1cbd b2b0 823d 6d0e 113c f431 2f3c
00000020: a156 113d 4837 4fbd e6af 27bd 83eb a23d
00000030: 5738 b1bd 6ae5 143e 8dc9 c3bd 9fab 183c
00000040: 47ae d43d bd52 cabd d5f6 b23c c47b dcb9
00000050: 5cfe 583d c6d4 98bd db73 123d d268 29bc
00000060: 3a59 cbbd 0b15 023d ef81 e03c cf68 7d3c
00000070: 2e1f b73c 6fb4 2b3b 0f42 efbc 3229 303d
00000080: 4954 13bd a1fd c03c 3e32 0e3c 9b9f 83bd
00000090: c3a5 7c3d 2217 49bd 5d35 d23b bcd6 fb3c
000000a0: 6371 013d b04c 5a3d d5b0 5c3d 1c97 80bd
000000b0: 2eea ba3c 1a6e 55bd d424 76bd a1d5 fa3b
000000c0: 8d9d 84bd 6904 fe3c d84d 54bd 67da bdbd
000000d0: 96ca 44bd 6a6e 083e 0838 46bd 8833 6bbd
000000e0: cc09 69bc 666d bfbd a3ff 9dbc fb91 1f3d
000000f0: 5cfb a93d 1f81 c2bd 29c6 a13d 6d18 c2bd
00000100: 8ea7 fc3d a49c bc3d a318 953b 6587 62bd
00000110: 8602 0e3d fb84 c0bc cb49 a4bb cdb7 8fbd
00000120: cd31 b93d aa40 8d3d 248e 1a3b c1f0 33b7
00000130: 3caa 8dbb 9b26 dc3b 5c84 ec3b 627d 1dbb
00000140: 315e baba 3c43 49bc 2f2a 0ebd 2c64 913b
00000150: 342d 783c 32f1 80bb 99bb 72bc b593 42bc
00000160: ec61 833c b25b 88bc c98d 16b5 7a55 7338
00000170: 4fc1 e339 84c6 94b3 2e9b bb39 933d 8c3a
00000180: 2eee 3534 4047 3b33 465a 64ba 64c8 d7b4
00000190: 8da9 2abb 38e9 ccba 14d8 223c 517f 643c
000001a0: 7c91 e9ba cda7 a6b8 b708 aa3a f7d8 9e3c
000001b0: 4704 b73b 0417 d0b8 43c2 2d3c cebe 013b
000001c0: 8ecb 123b a7a7 bf3b 6f7b 6f3b 7758 123b
000001d0: d64f b4bb 38f6 153a 1f83 edba bf40 1c3c
000001e0: 89a2 23ba 5f93 2439 8963 1eb9 901b 0c3b
000001f0: 3b4b 0cbb 3923 cd3d 61c6 7cbd 6096 65bd
00000200: ea75 293c 09dc bbbd 4c0a 263e 8dbc 093e
00000210: acd8 0a3e 3f2f 9e3d 3e18 423d 2a38 3ebd
00000220: fef6 b43d 00da a1bc 18f8 eb3b 4daa 09b9
00000230: 3fc3 1a3e b7f4 62bd 1602 83bd 83a2 603c
00000240: dc07 c1bd 2935 5dbc f05a 6f3d b9bc e4bd
00000250: fe6b 343e 6fc4 9bbd 10d8 503d 5fe3 fc3c
00000260: feee 57bc 346f 8e3d c60f 99bd f0ff 993d
00000270: fb98 8d3d 52c8 a2bb f8b0 79bd 0128 4abd
00000280: 46d4 1b3d f4fb f93c ad5f 2b3c ebff 49bd
00000290: e0cc 23bd 8543 d33c c856 113d d425 d23d
000002a0: 1931 5b3c 08c2 9b3c b0b4 033d 7254 bdbc
000002b0: cd84 83bc 1d2c 8cbd 78b9 ae3d 9c6b 02be
000002c0: cef3 b03c 87d3 913c d91e 7f3d 9c0f d03d
000002d0: 4af4 3e3d ff83 d5bd acea 853d 4f87 08be
000002e0: a7d4 ca3d a153 18be 480f febd 5434 ad3d
000002f0: c5c6 c6bd dc3b 2d3e 1e27 3cbd cc16 cbbd
00000300: 998c a33d bfbe 0bbc 496a d23d 494a e4bd
00000310: d853 1d3e d177 253d 67b5 c8bd 2035 12be
00000320: bec1 adbd 559c da3d c79a 8ebc d75e 0cbd
00000330: 5791 833d 7ad8 0cbc d8ab bebc 9f94 acbd
00000340: 7c3b 8cbd d710 d23d de38 983d 0f74 b13d
00000350: 6539 e13c 3385 ac3d 490f 6f3c 3b42 c33b
00000360: 38fd dabd b859 d1bc 82d6 383d 718c 953c
00000370: 8601 a83d adf8 5ebd 2fea e83d f9a2 b2bd
00000380: 0b01 23bd 2391 5fb8 c0f3 0bba 0735 f83a
00000390: ebbe 673b 180c 5a3a 85a7 f13b 883f fa38
000003a0: 6603 353c 6179 f23b cecc f93b 0529 043c
000003b0: 8eb9 b3ba ce8c f7ba 052c 173c 459a ee3b
000003c0: 38fd 28bc 5dd4 4b3c f592 453b 2152 27b9
000003d0: f71d e03b 80ae 20bb e184 0d3b 44d0 9f3b
000003e0: da01 c03b 60f9 d5bb afaf e53b fa36 6f3b
000003f0: 4592 b4bb a446 9c3a 3dce 4f3b 32ce 15ba
-0.031000799 0.0016027249 -0.069547206 0.0035558403 -0.038166326 0.06381358 0.008853537 0.010693062
0.035483006 -0.05058983 -0.040939234 0.079550765 -0.08653324 0.1454064 -0.09559927 0.009318261
0.10384803 -0.09879062 0.021846214 -0.00042053882 0.05297695 -0.07462458 0.03575502 -0.0103399325
-0.09929128 0.03175835 0.027405707 0.015466883 0.022353735 0.0026200076 -0.029206304 0.043008037
-0.035969052 0.02355844 0.008678971 -0.06426927 0.06168152 -0.049094327 0.006415053 0.030742042
0.031602275 0.05329579 0.053879578 -0.06278822 0.022816744 -0.052106954 -0.060093716 0.007654861
-0.06475363 0.031007962 -0.05183205 -0.092701726 -0.048044764 0.1332337 -0.04839328 -0.05742219
-0.014223527 -0.09347038 -0.019286936 0.038957577 0.08299896 -0.09497284 0.07899124 -0.09477315
0.12336646 0.09209564 0.004550056 -0.055304904 0.034670375 -0.02350091 -0.0050136796 -0.07017479
0.09042702 0.06897099 0.0023583258 -1.0725286e-05 -0.004323272 0.0067184693 0.007217927 -0.0024031033
-0.0014218745 -0.012284096 -0.0347082 0.0044369902 0.015147496 -0.0039350027 -0.014815235 -0.011876036
0.016037904 -0.016645286 -5.608568e-07 5.801532e-05 0.0004344084 -6.927897e-08 0.00035783037 0.0010699503
1.6943588e-07 4.3604132e-08 -0.00087109616 -4.0192674e-07 -0.0026041002 -0.001563347 0.009939212 0.01394637
-0.0017819847 -7.946752e-05 0.0012972568 0.019390566 0.0055852267 -9.9225e-05 0.010605398 0.0019797566
0.002239916 0.005848843 0.0036542078 0.0022330561 -0.0055026812 0.00057205884 -0.0018120742 0.009536921
-0.0006242176 0.00015695159 -0.00015105134 0.0021378733 -0.0021407146 0.10016484 -0.061712626 -0.056051612
0.010343054 -0.09172828 0.16214865 0.13450833 0.13559216 0.07723855 0.0473864 -0.04644028
0.088361725 -0.01975727 0.007201206 -0.0001312878 0.15113543 -0.05540916 -0.06396882 0.013710621
-0.09425327 -0.013501444 0.058436334 -0.111688085 0.17619321 -0.07605826 0.050987303 0.030870138
-0.013179539 0.06954804 -0.07473712 0.07519519 0.06913944 -0.0049677277 -0.060959786 -0.049354557
0.038044237 0.030515648 0.010459823 -0.049316328 -0.039990306 0.025789032 0.03548315 0.102611214
0.013378405 0.01901342 0.03215474 -0.023111556 -0.016054535 -0.068443514 0.08531469 -0.12736362
0.02160063 0.01780106 0.062285278 0.10159227 0.04661969 -0.10425567 0.06538901 -0.13332866
0.099038415 -0.14875652 -0.124052584 0.084572464 -0.09705881 0.16917366 -0.045935743 -0.099164575
0.07985801 -0.008529364 0.102741785 -0.11146981 0.15364015 0.04039747 -0.09800225 -0.14278078
-0.08484219 0.10674349 -0.017407788 -0.034270134 0.06424206 -0.008596534 -0.0232753 -0.08426785
-0.06847283 0.10257118 0.074327216 0.086647145 0.027493188 0.08423843 0.014591047 0.005958823
-0.10692829 -0.025555477 0.045126446 0.018255444 0.082034156 -0.054436374 0.11372792 -0.08722491
-0.039795917 -5.3302512e-05 -0.0005338751 0.0018936702 0.0035361599 0.0008317842 0.007374706 0.000119327626
0.0110481735 0.0073997234 0.0076232916 0.00806642 -0.0013711916 -0.0018886568 0.009226804 0.007281574
-0.010314278 0.012440768 0.0030147408 -0.00015956956 0.0068395096 -0.0024518073 0.0021594095 0.004877122
0.0058595957 -0.006529972 0.0070094685 0.0036501274 -0.0055106007 0.0011922908 0.003170862 -0.00057146244

layer1.0.bias f4 [16]
00000000: 3be7 003e 8c99 5fbd d740 61bd 2332 09be
00000010: ba10 1dbe 2a00 de3d 27fb 5a3d 412d 723d
00000020: bdb6 c03c 889a 14be ce90 62bd 34a5 44be
00000030: 59a9 31bd 8945 84bd 0caf 2ebe 099e 0abe
0.12588207 -0.054589793 -0.054993477 -0.13398032 -0.15338412 0.10839875 0.053462174 0.05912519
0.023524636 -0.14512074 -0.055313878 -0.19203645 -0.043374393 -0.06458575 -0.17058963 -0.13536848

layer2.0.weight f4 [32, 16, 5, 5]
00000000: 7eda c7bc cce3 1abc 7b45 713c fe88 903b
00000010: d02b 373c a8ae 233c e669 913b 19e1 03bd
00000020: 8539 87bc 6e1b 4b3c 3e93 a53c 8c02 d33c
00000030: ad5b d43c ca77 c63c 5870 b3bc f117 f83b
00000040: 3083 36bc 5500 d33c df55 e4ba f15d d6bc
00000050: 3cf7 25bc f960 bdbc fce7 b6bc 601d a7bc
00000060: a0f1 9f39 fa56 f438 3cc4 d5b7 7d4e a8b9
00000070: 9e44 f1b8 ca1f acb7 2b87 9738 b9ce a939
00000080: 723a abb8 315b f1b9 e534 cfb9 17db 19b9
00000090: 70dc 7638 3aac 6939 f4b0 5cb9 bdc3 22b9
000000a0: 4f45 3c39 d01a 98b6 2a31 e2b8 ef17 5a38
000000b0: 485f 2e37 d126 6eb1 6cf2 35b1 7e00 f1b5
000000c0: 03b5 a5b4 71b3 a9b4 aabc 7fbb ae11 6a3a
000000d0: 444c 1fbc 9cd0 5c3c 77fe 783b f613 67b9
000000e0: c131 133c 0b62 453a e7b2 7aba b606 cf3a
000000f0: 221c 64bb 6d87 f4bb e8d7 62bb 4440 493a
00000100: 4c27 4abb 8f23 f23b 3bad 073c e5a6 f63b
00000110: 755e 133c 2808 273b 3eb6 a7bb 5f4a 9d3b
00000120: c7d7 013a 5604 1ebc bbe4 25ba e97b 14b3
00000130: 5097 1ab2 0e52 bd32 4241 e7b3 1ee5 40b3
00000140: 30b8 bc33 b363 3cb3 48d5 8d34 2878 b1b0
00000150: b795 be32 abae 43b4 ff17 d733 3ea7 6f33
00000160: 8295 8f34 cff2 65b4 45e6 9033 bc80 1534
00000170: d693 c4b3 cfc4 65b2 3a85 64b4 a8dc 82af
00000180: 66a6 5632 1dc1 abb1 6382 91b3 7c76 8130
00000190: 7866 3a33 c17c 0d33 6d78 8633 9b39 c233
000001a0: 8c9a 2231 b6fc 07b2 71d0 8332 2e85 24b2
000001b0: a43d 0634 8fbc 3a33 768c 84b2 c42a 05b2
000001c0: 6d4e 47b3 d07f 3532 58dd 70b4 53b8 34b3
000001d0: ea1f 8ab2 a4e4 88b0 1eb9 28b2 38d1 9e31
000001e0: 0001 4bb0 3251 1eb1 2ef8 38b0 9a52 a1b1
000001f0: 90d8 4d30 653b 743c 8b1c c8b9 4155 e53b
00000200: a8d5 46bb 7987 193b 53bd 31bc 168f a1bb
00000210: 5aa2 b93a a8b6 86ba 10a0 2f3a 2818 91bb
00000220: 1f3a 81bb a777 923a 9724 0cbb b24c 45ba
00000230: 1c5c 1bbc 9ad5 92bb 2111 91bb 858b 013b
00000240: e506 32bb ce24 61bb ff5e cabb 6a37 16bb
00000250: 78f0 e6ba 0a63 e439 3028 1c39 e956 7cba
00000260: faa8 413a 0a60 c6b9 eb08 8fba 459a 44ba
00000270: dc3a 5c3b 2c3c f439 30b6 d1b5 662e 4cba
00000280: 1d4c 5aba 54c4 173a e660 bd39 c522 46b9
00000290: bd5d 70b9 8c7f 373a 1b1f 883a 28b0 98ba
000002a0: ecd4 0bba f0a8 46b9 0171 78b8 443f 2ab8
000002b0: fbe5 8438 16fa f537 4ca5 6bb8 1962 383c
000002c0: e2b6 6c3c 3706 0f3c bd6c 383b da02 7fbb
000002d0: ecf7 99bc 112d 9dbc 524d 8b3b 65bd a73c
000002e0: 801e 5cbb 2f48 d6bc 251c 4db9 e1e6 57bb
000002f0: 796f 983c 14a9 74bb cdc0 b6bb 9bb3 fc39
00000300: 9073 923a 3cd1 b2bc 6e83 a73b ecec 0bbc
00000310: 6314 50bc 57c8 89ba 3217 74bc a82f 5ebb
00000320: 2122 3a38 b9e8 3839 a429 e1b9 0190 b83a
00000330: 2d31 2f3a 1968 f538 1996 5e39 8342 8d37
00000340: 8a87 4d3a 2af3 3a3a ed2d dab9 f0dc a8b9
00000350: 2ae7 9ab9 4512 ebb9 1eff bab7 2c79 3b39
00000360: c1b7 0339 942e 1439 786d d5ba 7e8b e139
00000370: 6e26 f632 1fa4 fbb4 11de f036 d295 c9ba
00000380: 3036 ef36 18c3 40b3 9997 6bb3 0f7d 17b5
00000390: a15a dbb4 15f5 8f32 1813 6a34 f289 0833
000003a0: c658 2a34 251c f5b4 ef38 9934 24c8 6bb2
000003b0: 77b9 2433 e792 b031 4165 b834 e82f 9134
000003c0: 44e6 8432 9eb0 a131 a36d 4ab3 27e4 2b32
000003d0: 388f 8f31 4a26 3230 3343 1cb1 658b e732
000003e0: fe9a 14b0 2174 4a2f e623 b534 cd04 fab3
000003f0: d978 e934 c640 c8b4 906b 9a35 79cb 02b5
-0.024396177 -0.009453725 0.014726038 0.004410862 0.011179879 0.009990372 0.004437673 -0.03219709
-0.01650692 0.0123966765 0.020211812 0.02575805 0.02592262 0.024227042 -0.021904156 0.0075712134
-0.011139676 0.025756994 -0.0017420611 -0.026167842 -0.010129746 -0.02311753 -0.022327416 -0.02039975
0.00030506868 0.00011651027 -2.5482957e-05 -0.00032101935 -0.000115045565 -2.05188e-05 7.225418e-05 0.00032388212
-8.164802e-05 -0.00046035045 -0.00039521526 -0.00014672834 5.885627e-05 0.00022284771 -0.00021046755 -0.00015522442
0.00017954897 -4.5330744e-06 -0.00010785677 5.199754e-05 1.0393393e-05 -3.4655623e-09 -2.6476767e-09 -1.7956042e-06
-3.0865348e-07 -3.1609264e-07 -0.0039022365 0.0008929026 -0.009722773 0.013477471 0.003799347 -0.00022037313
0.00898403 0.0007529563 -0.00095634017 0.0015794847 -0.0034806808 -0.007462433 -0.0034613553 0.0007677118
-0.0030846177 0.007389493 0.008281047 0.0075272196 0.008994688 0.002548704 -0.0051181605 0.0048001255
0.0004953113 -0.009644588 -0.0006328334 -3.457163e-08 -8.998384e-09 2.203981e-08 -1.0768646e-07 -4.4911864e-08
8.787936e-08 -4.3862837e-08 2.641848e-07 -1.2912595e-09 2.2186994e-08 -1.8224334e-07 1.00160825e-07 5.579863e-08
2.6744607e-07 -2.141562e-07 6.747408e-08 1.392354e-07 -9.1538524e-08 -1.3374303e-08 -2.1282622e-07 -2.3803648e-10
1.2494274e-08 -4.9987094e-09 -6.775806e-08 9.419661e-10 4.3399695e-08 3.2942584e-08 6.2617666e-08 9.044307e-08
2.3661952e-09 -7.915494e-09 1.5345195e-08 -9.576338e-09 1.2502147e-07 4.3477993e-08 -1.5430697e-08 -7.751343e-09
-4.6404626e-08 1.0564648e-08 -2.2432266e-07 -4.2077158e-08 -1.6079827e-08 -9.960286e-10 -9.820978e-09 4.6221906e-09
-7.385239e-10 -2.303818e-09 -6.7291495e-10 -4.6951074e-09 7.488632e-10 0.014906739 -0.0003816824 0.0069986884
-0.0030339751 0.0023426695 -0.010848361 -0.0049303873 0.0014162764 -0.0010277824 0.00066995714 -0.0044279285
-0.003943696 0.0011174575 -0.0021384114 -0.0007526382 -0.00948241 -0.0044810297 -0.0044270908 0.0019766998
-0.0027164754 -0.0034354213 -0.006175875 -0.0022921213 -0.0017619273 0.0004356134 0.0001489229 -0.0009625988
0.0007387545 -0.00037837058 -0.0010912692 -0.00074997946 0.003360442 0.00046584138 -1.5624737e-06 -0.00077888963
-0.0008327382 0.0005789448 0.00036121084 -0.00018895704 -0.00022923104 0.0006999902 0.0010385247 -0.0011649178
-0.0005334157 -0.00018945686 -5.923305e-05 -4.059008e-05 6.337088e-05 2.9322731e-05 -5.618231e-05 0.011253857
0.0144479 0.008729509 0.0028140985 -0.0038911612 -0.018794976 -0.019186528 0.0042511607 0.020476053
-0.0033587515 -0.026157467 -0.00019560808 -0.003294401 0.018607842 -0.0037332224 -0.005577183 0.00048199002
0.0011173356 -0.021828286 0.005112103 -0.008540373 -0.012700173 -0.0010511976 -0.014898108 -0.0033902917
4.437764e-05 0.00017634303 -0.0004294637 0.0014081002 0.0006683048 0.000117019 0.00021227486 1.6839482e-05
0.0007840326 0.0007131571 -0.00041614418 -0.00032208068 -0.000295454 -0.00044836305 -2.2291726e-05 0.0001787885
0.00012561587 0.00014131732 -0.0016283235 0.00043019274 2.8655645e-08 -4.6871807e-07 7.1784093e-06 -0.0015379733
7.1290633e-06 -4.488092e-08 -5.485308e-08 -5.643387e-07 -4.085787e-07 1.6758841e-08 2.1799895e-07 3.1790428e-08
1.586478e-07 -4.5655284e-07 2.8539895e-07 -1.3724307e-08 3.8352905e-08 5.138975e-09 3.4346343e-07 2.704321e-07
1.5471535e-08 4.7057958e-09 -4.7131504e-08 1.0005386e-08 4.17813e-09 6.4810435e-10 -2.2739186e-09 2.6955329e-08
-5.4062343e-10 1.841305e-10 3.3739997e-07 -1.16424054e-07 4.348756e-07 -3.7300032e-07 1.1505199e-06 -4.8724866e-07

layer2.0.bias f4 [32]
00000000: 6919 a6bc d137 0cbd f738 11bd 48f7 54bd
00000010: d57f ceb9 c7c6 633c 0cb1 39bd 4012 2f3c
00000020: 62cb 923b c234 203c db53 e9bc d8de 0fbb
00000030: a379 48bd 1e0e afbb 82a9 d4bb 755d b53c
00000040: 5a12 393c 336a 1fbd 20aa bc3c 0099 ccbc
00000050: 7f3f 84bc d5e3 aa3c 2166 50bd 516a b33b
00000060: 2245 4abd 366e 913c 18a1 3abd 9b00 bbbb
00000070: 8f2f 50bd 061b ca3c 323e 80bd 0df2 1b3d
-0.020275788 -0.03423292 -0.035454717 -0.05199364 -0.00039386624 0.013902373 -0.04533486 0.0106855035
0.0044798115 0.009778203 -0.028482368 -0.0021952894 -0.048944127 -0.005342259 -0.0064899335 0.02213929
0.011295879 -0.03891964 0.02303034 -0.0249753 -0.016143559 0.020860592 -0.050878648 0.0054753204
-0.049382336 0.017752748 -0.045563787 -0.0057068593 -0.050826605 0.024671089 -0.06261863 0.038072634

out.weight f4 [2, 1568]
00000000: 5354 2dbc dcd4 7fbc 94de 3cbc 05db b73b
00000010: 078c 063b 863b 94ba cbaa fabb 4946 e83b
00000020: d1d5 353b 5a3f 753c 61f2 c23b f7bc 693c
00000030: 6a78 9d3c 3074 e03b 8ff6 94bb f4f6 93bc
00000040: ae94 2c3b 9c4e 9fbc 4435 3cbb 457a e2bc
00000050: f047 573c 7cba 913c c606 a73b 79db c2bc
00000060: 2f2b a13c ea98 6bbc a20c 053c 3fcf b7bc
00000070: d308 9eba 5a77 83bc 5b38 46bc 7419 c7bc
00000080: 87c9 9cbc 7926 5b3b 5205 a83c 7e9c 77bc
00000090: 61d4 5fbc 06a7 47bb 04ab 22bb d62c 943c
000000a0: 5c1e 4d3c 4d6c 5d3c 3e59 93bc a38b 8fbb
000000b0: 1349 5ebc a23e 42bc 5787 c4bc 5844 4b3c
000000c0: f85a 92ba 5e5f 0c3c 7d7e b33c 6881 79bc
000000d0: ce59 b6bc 0121 243c fcfa 293c 8741 8cbc
000000e0: e37d 21bc 222f 38bc 0c3b 02bc 04ca 24bc
000000f0: 542d 27bc 12a8 e4b9 3587 f2bc 0319 8dbc
00000100: 4d5a f7bb e97c dc3b e9a2 86bc 682b 25bc
00000110: d7b7 8bbc 89a5 683c 0a88 abbc 55f5 173c
00000120: 872d febb d594 91bc 1c61 bebc 7a2a c0ba
00000130: d147 4c3c 76df 833b 891f 1cbc 0f6e cebc
00000140: 3ec5 38bc 473d 58bc 8505 edbc 6f44 e93a
00000150: a496 bdbb c59c 533b 34f9 99bc d246 433c
00000160: 2756 55bb 67e6 0dbc f975 f23a d91f 813c
00000170: 9a22 2e3c 6ce3 b3bc aa5b 663c 8039 3c3b
00000180: cd11 a43c e58a 43bb 8bdb 133c 0433 af3c
00000190: f7d5 7bbc 2fd3 dd3b c692 733c 3e94 72bc
000001a0: 75c9 d93b 07f8 c6bc 76b7 a33c 530e 2c3c
000001b0: d82d cdbb 04fe 873c dcf4 81bc 3316 333c
000001c0: dda8 1fb9 6e0c 433c 7ce5 0c3a b84b 27bc
000001d0: 26e6 50bc fc81 cabc 1f64 783c 99a5 f1bb
000001e0: 9a76 26ba e755 8f3c 09b1 d83a 5159 7f3a
000001f0: 594f d8bc 31d6 ab3c 149e deba 34c5 79bc
00000200: 51e9 bdbc 5895 543c 3b43 03bc 3c42 273c
00000210: cfbb 6dbc 688a 9b3c fb5a b9bc cbce a2bc
00000220: 1fe5 cdbc 6e73 cb3b 8580 86bc 2485 0bbc
00000230: 0e0e 77bc bc08 60bc a421 bbbb 57f9 81bc
00000240: 5dcf 7b3c cf1d 863b c4c2 983c c2fe 24bc
00000250: 268a 513c d4fb 483c 05a9 cbbc bc24 10bc
00000260: 3a72 073b 31f7 a7bb 7d6f 4bba 110a fdbc
00000270: 6262 ebbc c4e3 d53c dfb1 6a3c a9f5 72bc
00000280: d2b1 15bb bbe0 863c 9274 4c3c f46a 82bc
00000290: 1d38 4abc 03b6 19bc 016a e338 a67e 13bb
000002a0: c8bb 82bb f8bd a5bc c9a3 6bbc 0f97 f8bb
000002b0: 57d1 463c b986 c3bc 8119 cdbb c854 adbb
000002c0: 5dcb 05bc 6edc 833c e38d 0d3c 1571 b1bc
000002d0: eb67 963c 9f5d ccba 1351 a8bb d3b8 8cbc
000002e0: c05e da3c bc92 cb3c 3c72 94bc b6de 8abc
000002f0: 397d 0e3c 8d33 403c e2f7 7a3c 10db 8c3c
00000300: e9be 983c 09d1 84bb 5a12 333c 9275 ca3b
00000310: 28a0 103b b820 8d3c afe8 9abc d81c 0c3c
00000320: e8be b4bb 6bda e3ba 421d a7bc ad29 cfbc
00000330: 4fc0 fa3c 747f d13c c88b 16bc fa7d ec3b
00000340: dcef 75bb d90f 5d3a 1771 b5bc 1c6b 6fba
00000350: f93d 88b9 0328 183c da04 2ebc 13ba 87bc
00000360: 7460 01bb 0e6b debc f519 253c 8e2e 68bc
00000370: 607d 16bc a5aa 8fbc efb8 073c 876b 5ebb
00000380: efc8 02bb d3cb 8abb f888 d1bb f81d f2bc
00000390: 3e01 13bb 7194 803b 9937 e93b c923 d33b
000003a0: 5f01 fd3c 754d 8c3c 8514 3c3c 0f67 b8bc
000003b0: fe2e 14bd 480e 073c 8dfd 84bc 05e6 d2bc
000003c0: a2cb 81bc f29c babb 082b b7bc 2a25 85bc
000003d0: 738b 5c3c e75d 093c cc1a c03b f146 16ba
000003e0: 643c c9bc 6704 30bb 45a1 40bb 2bba 2b3c
000003f0: f440 55bc 23f2 a7bc 8452 0cbb 6b8b b9bc
-0.0105791865 -0.0156147145 -0.011527676 0.005610826 0.002053024 -0.0011309243 -0.0076497546 0.007088457
0.0027745853 0.0149687175 0.005949304 0.014266244 0.019222457 0.006849788 -0.0045459936 -0.018062092
0.0026333737 -0.019446664 -0.0028718272 -0.027646193 0.01313971 0.017789118 0.005097243 -0.023786293
0.019673912 -0.014379719 0.008120688 -0.02243769 -0.0012057073 -0.016048122 -0.012098397 -0.02430413
-0.019139064 0.003343968 0.02051035 -0.015112994 -0.013661475 -0.0030464544 -0.0024821172 0.018087786
0.012519445 0.01351459 -0.01798689 -0.0043806597 -0.013567227 -0.011855753 -0.023990316 0.012406431
-0.0011166027 0.008567659 0.0219109 -0.015228607 -0.02225962 0.010017634 0.010374781 -0.01712109
-0.009856674 -0.011241706 -0.007948648 -0.01005793 -0.010203678 -0.0004361277 -0.029605487 -0.01722384
-0.0075486065 0.0067287576 -0.016435103 -0.01008115 -0.017055435 0.014199623 -0.020938892 0.0092748
-0.007756892 -0.017771164 -0.023239665 -0.0014661097 0.012468294 0.0040244414 -0.009529003 -0.025198964
-0.011277495 -0.013198203 -0.028933296 0.0017796884 -0.00578578 0.0032289487 -0.018795587 0.01191874
-0.0032552572 -0.008660889 0.0018498293 0.015762256 0.010628367 -0.02195903 0.01405994 0.0028720796
0.02002802 -0.0029837426 0.009024511 0.02138663 -0.015370837 0.00676956 0.0148665365 -0.0148058515
0.00664633 -0.02428819 0.019984942 0.010501462 -0.0062615685 0.016600616 -0.015863828 0.010930586
-0.00015226328 0.011904819 0.0005374772 -0.010210924 -0.012750184 -0.024720185 0.0151605895 -0.007374477
-0.00063500705 0.017497016 0.0016532253 0.0009740787 -0.026405023 0.020976158 -0.0016984367 -0.015244771
-0.023182543 0.012975059 -0.008011634 0.010208663 -0.014510109 0.018986896 -0.02262639 -0.019873997
-0.025133668 0.0062088287 -0.016418705 -0.00851563 -0.0150790345 -0.013673957 -0.0057107974 -0.015865965
0.0153692635 0.004092909 0.018647559 -0.010070505 0.012789285 0.012267072 -0.024860868 -0.008797821
0.002066745 -0.005125903 -0.00077604485 -0.03088859 -0.028733436 0.026109584 0.014324634 -0.014829078
-0.0022841585 0.016464582 0.012478964 -0.01592014 -0.01234248 -0.009381774 0.00010843948 -0.0022505908
-0.0039896704 -0.020232186 -0.014382311 -0.007586367 0.012134871 -0.023867952 -0.006259144 -0.0052896477
-0.008166161 0.01609632 0.008639785 -0.021660367 0.018360099 -0.0015591866 -0.005136618 -0.017177975
0.026656508 0.024850242 -0.018120877 -0.0169519 0.008696848 0.011731041 0.015317889 0.0171943
0.01864572 -0.0040532392 0.010929668 0.0061785663 0.0022068117 0.017227516 -0.01890978 0.008551799
-0.005515922 -0.0017383819 -0.020399693 -0.025288427 0.030609278 0.02557347 -0.0091886 0.007217166
-0.0037527 0.00084328424 -0.022148652 -0.0009133087 -0.00025986115 0.009286883 -0.010621274 -0.01656822
-0.0019741328 -0.027150657 0.010076989 -0.014171256 -0.009185165 -0.017537424 0.008283838 -0.0033938603
-0.0019956192 -0.0042357235 -0.006394502 -0.029555306 -0.002243116 0.0039239456 0.0071172235 0.006443475
0.030884443 0.017126778 0.011479502 -0.02251008 -0.036177628 0.008243151 -0.016234184 -0.025744447
-0.01584417 -0.005694979 -0.022359386 -0.016253073 0.013460982 0.0083842045 0.0058625694 -0.0005732617
-0.02456493 -0.0026858093 -0.0029393 0.010481398 -0.013015974 -0.020501202 -0.0021411488 -0.022649487

out.bias f4 [2]
00000000: a035 9d3c e211 9b3c
0.01919061 0.018929426
